hey_pum_key.tflite (tflite, 206748 bytes, 9 tensors)

Const_1 f4 [32]
0	0xbc8b9ee1	-0.017043533
1	0xbb3d5a2a	-0.0028892853
2	0xbbd1da6b	-0.0064042113
3	0x3c89a2a2	0.016801182
4	0x3c67ec40	0.0141554475
5	0x3be8bfe6	0.007102954
6	0x3ccceeee	0.025016274
7	0xbc9a2ea3	-0.018821066
8	0xbbdc8eae	-0.006730876
9	0x3c638a70	0.013887987
10	0xbbb700a7	-0.0055847946
11	0x3cab10c0	0.02088201
12	0x3c9ae0b3	0.018905973
13	0x3c47541d	0.01216605
14	0xbc9d5d21	-0.019209446
15	0x3cc52fd2	0.024070654
16	0xbc5425cd	-0.0129484655
17	0x3b64736a	0.0034858831
18	0x3c3c5993	0.0114959655
19	0xbc7e9a69	-0.015539744
20	0xbc8ed64e	-0.017436173
21	0x3c276c28	0.010218658
22	0x3c8a2429	0.016862946
23	0x3c750676	0.014955154
24	0xbb74dcc3	-0.003736303
25	0xbc49f062	-0.012325378
26	0xbc947b0e	-0.018125083
27	0xbb98d6ee	-0.0046642935
28	0x3cf0e2bb	0.029404989
29	0xbc910825	-0.017704079
30	0x3c7222bf	0.014778792
31	0xbc9c81fa	-0.019104946

Const_2 f4 [32]
0	0x3f802b8f	1.0013293
1	0x3f7f2878	0.99671125
2	0x3f7f90ce	0.9983033
3	0x3f80ac69	1.0052615
4	0x3f7ff936	0.9998964
5	0x3f7e7cf9	0.99409443
6	0x3f80415d	1.0019947
7	0x3f7f997a	0.9984356
8	0x3f7fc7d7	0.99914306
9	0x3f8089cd	1.0042053
10	0x3f8434cb	1.0328611
11	0x3f7fc119	0.9990402
12	0x3f823d1d	1.01749
13	0x3f799f33	0.97508544
14	0x3f808c5b	1.0042833
15	0x3f7b14f5	0.9807885
16	0x3f862b73	1.048201
17	0x3f81413d	1.0098034
18	0x3f81be43	1.0136188
19	0x3f7fa242	0.9985696
20	0x3f8141f7	1.0098256
21	0x3f7f747f	0.99787134
22	0x3f7f912a	0.9983088
23	0x3f820cde	1.0160177
24	0x3f8504c8	1.0392084
25	0x3f812777	1.0090169
26	0x3f7dc51a	0.9912888
27	0x3f81c556	1.0138347
28	0x3f81bb57	1.0135297
29	0x3f7eddf7	0.9955744
30	0x3f7fd5e1	0.9993573
31	0x3f7ed6c5	0.9954646

Const_3 f4 [32]
0	0x3b8a9050	0.004228629
1	0xbc2e564d	-0.010640693
2	0xbbf4c1d2	-0.0074693942
3	0x3baaa683	0.005207838
4	0xbb85618e	-0.0040704673
5	0xbcb3212b	-0.021866402
6	0x3cb9b956	0.022671383
7	0xbc1f4838	-0.009721808
8	0xbbd7f25e	-0.0065901717
9	0x3c29bdce	0.010360194
10	0x3c8655b3	0.016398286
11	0x3b4cff45	0.0031280082
12	0x3ca7a17b	0.020462742
13	0xbcfb71d6	-0.03069393
14	0x3cf35630	0.029704183
15	0x3b51d1e7	0.003201598
16	0x3ca4b9fa	0.020108212
17	0x3c55a1d7	0.013039074
18	0x3cb7c75f	0.022433935
19	0xbc08c7d4	-0.008348424
20	0x3c9171d6	0.017754477
21	0xbac1ae91	-0.0014776756
22	0xbbf94228	-0.0076067634
23	0x3c3ba9f8	0.011454098
24	0x3c6f45a5	0.014604007
25	0x3ce9031e	0.02844387
26	0x3cbe0e52	0.023200188
27	0x3c771672	0.015081035
28	0x3cc89b16	0.024488013
29	0xbb9ce20f	-0.0047876905
30	0xbb1157f9	-0.002217768
31	0x3c06a756	0.008218607

Const_5 f4 [32]
0	0x3cdf0008	0.027221695
1	0xbc733ee0	-0.014846534
2	0xbd9a95b0	-0.07548082
3	0xbd89f213	-0.06735625
4	0xbd9e0bd3	-0.07717099
5	0x3ce5db01	0.02805853
6	0x3e351883	0.17685132
7	0xbd3322c2	-0.04373432
8	0xbb32d691	-0.0027288536
9	0xbd68604a	-0.056732453
10	0x3dca110e	0.09866534
11	0xbd1f8c17	-0.03895196
12	0x3e02aa7d	0.12760349
13	0xbe0d08a7	-0.13772832
14	0xbe0c1d8e	-0.13683149
15	0x3da81842	0.08207752
16	0x3e006e1d	0.12542005
17	0x3d1c0bb3	0.038097095
18	0x3e1df8fa	0.15427008
19	0x3ce4acb9	0.027914392
20	0x3d07293e	0.032998316
21	0x3db647df	0.08900427
22	0xbdcc8377	-0.099860124
23	0xbda8aaad	-0.08235679
24	0x3e368cfb	0.17827217
25	0x3db64a3f	0.0890088
26	0x3c8c7e42	0.017150048
27	0xbdc3495e	-0.09535478
28	0xbc2316fb	-0.009954209
29	0xbd5a2da7	-0.053266194
30	0x3d81bef1	0.06335247
31	0xbd93fe4b	-0.07226237

Const_6 f4 [32]
0	0x3f81e21a	1.0147126
1	0x3f874d69	1.0570499
2	0x3f8e9057	1.1137799
3	0x3f80413d	1.0019909
4	0x3f87d007	1.061036
5	0x3f766d1d	0.96260244
6	0x3f885a8f	1.0652636
7	0x3f81024a	1.0078824
8	0x3fa605bd	1.2970501
9	0x3fa376a1	1.2770578
10	0x3f7ef2fa	0.995895
11	0x3fa0315a	1.2515061
12	0x3f7e7e9b	0.99411935
13	0x3f814b37	1.0101079
14	0x3f852aa5	1.0403639
15	0x3f7ac45a	0.9795586
16	0x3fac2419	1.3448516
17	0x3f82cea0	1.0219307
18	0x3f8df2b4	1.1089692
19	0x3f7ea635	0.9947236
20	0x3f80d2c5	1.0064322
21	0x3fa2f032	1.2729552
22	0x3fa1ef27	1.2651109
23	0x3f826750	1.0187778
24	0x3f838c5b	1.0277208
25	0x3f819e8e	1.0126512
26	0x3f7f2688	0.9966817
27	0x3fa2cd17	1.2718838
28	0x3f8727a7	1.0558976
29	0x3f860843	1.0471271
30	0x3f7fc36e	0.9990758
31	0x3f83cd58	1.0297041

Const_7 f4 [32]
0	0x3b27bdbe	0.0025595273
1	0x3ccd543a	0.025064576
2	0x3dc339b3	0.0953249
3	0xbb2cf453	-0.0026390746
4	0x3cc86738	0.024463281
5	0xbd105645	-0.035238523
6	0x3cd64c79	0.026159512
7	0x3b622f96	0.0034513227
8	0x3e8d12be	0.27553362
9	0x3e883d77	0.26609394
10	0xbc28ec18	-0.010310195
11	0x3e84545f	0.2584562
12	0xbc833002	-0.016014103
13	0x381774cf	3.6109992e-05
14	0x3d0408fb	0.032235127
15	0xbb9e94a2	-0.0048394958
16	0x3e99baa2	0.30025202
17	0x3c985f96	0.018600266
18	0x3d0b85c0	0.0340631
19	0xbcbdc861	-0.023166837
20	0x3b5b4e9d	0.0033463605
21	0x3e88004e	0.26562732
22	0x3e8a40db	0.27002606
23	0x3c69a401	0.014260293
24	0x3ce0c04e	0.027435448
25	0xbb8a4c55	-0.0042205253
26	0xbc0dd40b	-0.008656512
27	0x3e87ed85	0.265484
28	0x3c7a53d6	0.015278777
29	0x3d0963a9	0.03354231
30	0x3cfe0318	0.031007335
31	0x3cec1875	0.028820256

MatMul f4 [32, 1536]
0	0x3b01164e	0.0019697133
1	0x3c7069f8	0.014673702
2	0xbc53bebf	-0.012923895
3	0xbcd37e3d	-0.025817031
4	0x3cbe0257	0.023194475
5	0xb98c006e	-0.000267032
6	0xbd0182a2	-0.03161872
7	0xbc1b2109	-0.009468325
8	0xbcfa29af	-0.030537454
9	0x397c26c0	0.00024047028
10	0xbc852996	-0.016255181
11	0x3b2bbed5	0.0026206274
12	0xbce3cea0	-0.027808487
13	0x3d3c161a	0.045919515
14	0x3c92a9cb	0.01790323
15	0xbd12214b	-0.035676282
16	0xbc3c3aa7	-0.011488593
17	0x3b94291e	0.004521503
18	0x3bd959f5	0.006633038
19	0xbc6fb521	-0.014630587
20	0x3cfb81f1	0.03070161
21	0xbca8e377	-0.020616276
22	0x3cba716e	0.022759166
23	0xbb5b2b5d	-0.0033442595
24	0xbc899189	-0.01679303
25	0xbbd63480	-0.00653702
26	0x3b5835bd	0.0032991015
27	0xbbd45187	-0.0064794454
28	0xbcbe2819	-0.02321248
29	0x3c5ccce0	0.01347658
30	0xbc7aa6f2	-0.015298592
31	0xbbe3ff2f	-0.0069579105
32	0xbcb25b95	-0.021772185
33	0xbc03a914	-0.008035917
34	0x3bd55baf	0.0065111737
35	0xbca8349d	-0.0205329
36	0x3c7767c9	0.015100428
37	0x3c454166	0.012039518
38	0xbacc8c9a	-0.0015605867
39	0xbc8cc586	-0.01718403
40	0xbcb41625	-0.021983216
41	0x3b5ded97	0.0033863538
42	0xbc515fc2	-0.012779178
43	0xbc92d173	-0.017922139
44	0xbaac19f2	-0.0013130291
45	0xbcd4fbdf	-0.025999008
46	0xbc4f4ccf	-0.01265259
47	0xb99450b7	-0.00028288897
48	0xbcb5adc0	-0.022177577
49	0x3d15ab00	0.03654003
50	0x3bbf0112	0.005828985
51	0xba19ec10	-0.0005871663
52	0x3bc6509f	0.0060520913
53	0x3cc0feee	0.02355906
54	0xbc2b7b92	-0.010466473
55	0xbc422873	-0.011850464
56	0xbbd059ae	-0.006358347
57	0x3c85ad90	0.016318113
58	0xbc022b22	-0.007944854
59	0x3c029ab9	0.007971459
60	0xbb64b41b	-0.003489739
61	0xbd0ce1c7	-0.034395006
62	0xbbff2cd2	-0.0077873254
63	0xbca79520	-0.02045685
64	0x3c37ca30	0.011217639
65	0x3c8484a2	0.016176526
66	0x3cdf85a9	0.027285414
67	0xbc710eb1	-0.014712975
68	0xbbdcf475	-0.0067430087
69	0xbc6178ee	-0.013761742
70	0xbd239f49	-0.039946828
71	0xbc18d4ad	-0.00932805
72	0xbc2fa120	-0.010719568
73	0x3cac1a4b	0.021008631
74	0x3a470566	0.0007592052
75	0x39482d77	0.00019090423
76	0x3c80bbe5	0.015714595
77	0x3d3adc1e	0.045620076
78	0x3cd4a58b	0.025957843
79	0x3c523491	0.012829916
80	0xbc6be1ae	-0.014397068
81	0xbcdd50c9	-0.02701606
82	0xbbd11f3a	-0.0063818963
83	0xbbea65e7	-0.007153261
84	0x3bd7237a	0.0065655084
85	0x3b85a762	0.0040787915
86	0xbceabc59	-0.028654264
87	0xbbd1a93b	-0.0063983477
88	0x3ce15287	0.027505172
89	0x3c334ca7	0.010943568
90	0xbce305db	-0.027712753
91	0xbc357d1f	-0.0110771945
92	0x3b03aa79	0.0020090623
93	0x3c993c43	0.018705493
94	0x3ba7b42e	0.0051179146
95	0xbc4ed871	-0.012624846
96	0x3bebd3d0	0.007196881
97	0x3be1d461	0.0068917726
98	0xbbac75ab	-0.0052630506
99	0xbd19426f	-0.03741687
100	0xbba421ae	-0.0050088977
101	0xbb067ed0	-0.0020522363
102	0x3c454c17	0.012042067
103	0xbced92d8	-0.029000685
104	0xbd5bff01	-0.053709988
105	0xbcba9f85	-0.022781143
106	0x3c563f78	0.013076656
107	0xbc7231f9	-0.014782422
108	0xbbc2d12a	-0.0059453445
109	0xbcbc4cf5	-0.022985915
110	0x3cad3913	0.02114538
111	0xbd036417	-0.032077875
112	0xbbfb2f86	-0.0076655773
113	0x3cb3ee02	0.021964077
114	0xbb0cb362	-0.0021469225
115	0xbb53b18e	-0.0032301876
116	0x3cca3979	0.024685608
117	0xbcc2b932	-0.023769949
118	0x3cbd7383	0.02312637
119	0x3cced1f8	0.025246605
120	0xbca5ca41	-0.020238044
121	0x3c89ff0e	0.016845252
122	0x3c02c3fb	0.007981296
123	0xbd05e38a	-0.0326877
124	0x3c35d4de	0.011098115
125	0x3c0fc84b	0.008775781
126	0xbc13c81f	-0.009019881
127	0x3c836afb	0.016042223
128	0x3b118828	0.00222064
129	0xbbe77bcb	-0.007064318
130	0x3b028f42	0.0019921814
131	0x3c78c79b	0.015184308
132	0x3c90eff3	0.017692542
133	0xbb0c520d	-0.002141121
134	0xbbbf10af	-0.0058308463
135	0x3c2d0172	0.010559427
136	0xbc99f3f7	-0.01879309
137	0x3c128460	0.0089426935
138	0xbccc86dd	-0.024966652
139	0xbb7c41ea	-0.0038491436
140	0x3c4c1d1e	0.012458114
141	0xbcc935a3	-0.024561709
142	0xbad19d80	-0.0015992373
143	0x3c04fa6d	0.008116347
144	0xbc4e056f	-0.012574538
145	0x3c6f8370	0.0146187395
146	0xbc0a6183	-0.0084461
147	0x3c7165b8	0.014733724
148	0x3b727dbf	0.003700122
149	0x3c4e95ee	0.012608988
150	0xba90bb8f	-0.0011042225
151	0x3c86c085	0.016449222
152	0xbca53d60	-0.020170867
153	0x3b206267	0.0024472715
154	0xbc51c041	-0.012802185
155	0xbad11cf2	-0.0015954061
156	0x3b76731b	0.003760523
157	0xbc29b6fa	-0.010358566
158	0xbccaf2d7	-0.024773998
159	0xbd0678ba	-0.032829978
160	0x3c29627a	0.01033842
161	0xbc6b39d1	-0.014357046
162	0xbc4a1a8b	-0.01233543
163	0xbb295f8f	-0.002584431
164	0x3b16db03	0.0023018725
165	0x3c9296a0	0.01789409
166	0xbcfc392d	-0.030788982
167	0x3c5c4d72	0.013446199
168	0xbbdd5277	-0.0067542153
169	0x3c9b39de	0.018948492
170	0xbbe96c42	-0.007123501
171	0xbb26df95	-0.0025462855
172	0xbc7617b8	-0.015020303
173	0x3ccd56f2	0.025065873
174	0x3c6d2021	0.014472992
175	0x3b24e80a	0.002516272
176	0xbc1e6c30	-0.009669349
177	0xbcbd1131	-0.023079487
178	0xbc3791de	-0.011204211
179	0x3cda48b8	0.026646003
180	0xbc0ece59	-0.008716189
181	0xbb898c12	-0.004197606
182	0xbc430bd0	-0.011904672
183	0xbc22dc7f	-0.009940266
184	0xba98ec15	-0.0011667038
185	0x3ba73c92	0.005103656
186	0x3bfc36f2	0.0076969797
187	0x3c64a8bd	0.013956246
188	0x3ba2ff92	0.004974314
189	0x3a310e4b	0.0006754144
190	0xbca5933d	-0.02021181
191	0x3c3e84a3	0.011628303
192	0xbc4ad682	-0.012380244
193	0xbcb48341	-0.022035243
194	0xbcc52b13	-0.024068391
195	0xbcdcbc12	-0.026945148
196	0x3c88fdca	0.016722579
197	0xbc9346a3	-0.017978018
198	0xbbf9b8cf	-0.007620908
199	0xbc4cd7c0	-0.012502611
200	0xbd104117	-0.035218325
201	0x3c8ae12d	0.016953075
202	0xbb07af8a	-0.0020703995
203	0xbcc1f439	-0.023676025
204	0x3c639df6	0.013892641
205	0xbc533262	-0.01289043
206	0x3cb953ca	0.022622962
207	0xbc65d8a5	-0.014028703
208	0x3c28e3e6	0.0103082415
209	0x3cbea5df	0.023272453
210	0xbd1fb349	-0.03898934
211	0x3c6a0f4e	0.0142858755
212	0x3b06b963	0.0020557276
213	0x3bb56031	0.0055351485
214	0xbb8465b7	-0.0040404457
215	0x3ce0f920	0.027462542
216	0xbca1c9f2	-0.019749615
217	0x3cbf3e60	0.023345172
218	0x3b59745d	0.003318093
219	0xbb1c3a41	-0.0023838433
220	0x3c3c0989	0.011476883
221	0xbc37f136	-0.011226943
222	0xba2b54d6	-0.0006535774
223	0x3c00bef4	0.007858027
224	0x3cd07a90	0.025449067
225	0x3cad437f	0.021150349
226	0x3c3df3ba	0.0115937535
227	0xbb4259d6	-0.0029655597
228	0x3c6b0107	0.014343507
229	0x3cb5852d	0.02215823
230	0xbcfa4e81	-0.030555012
231	0xbbdd89a8	-0.0067607947
232	0xbc29f047	-0.010372228
233	0xbca3af9d	-0.0199812
234	0xbc61f6f2	-0.0137917865
235	0xbc8953bf	-0.016763566
236	0x39bab957	0.00035614774
237	0xbc090a75	-0.00836431
238	0xbcb5d8ab	-0.022198042
239	0x3c154a10	0.009111896
240	0x3bb120b0	0.005405508
241	0x3cd4c75d	0.02597397
242	0xb75bd960	-1.3104029e-05
243	0xbbb4568d	-0.0055034817
244	0x3ca2e700	0.01988554
245	0x3cc1ca97	0.023656173
246	0x3c4c0200	0.012451649
247	0xbc56d1bf	-0.013111531
248	0xbcfa20a6	-0.030533146
249	0x3c1fce50	0.009753779
250	0x3c83cd69	0.016089158
251	0xb868ed72	-5.553425e-05
252	0x3cf3496f	0.029698102
253	0x3c3f6e63	0.011684033
254	0xbc97196d	-0.018444741
255	0x3a501b5d	0.0007938648

MatMul_1 f4 [32, 32]
0	0x3dd7a105	0.10528759
1	0x3df5f5c9	0.120097704
2	0x3e02228f	0.12708496
3	0x3dcff517	0.10154169
4	0xbc16aa5e	-0.009195892
5	0x3cfe0da2	0.03101236
6	0x3e00af5a	0.12566891
7	0x3d7b2321	0.0613128
8	0x3b1c7219	0.0023871718
9	0x3cf4510d	0.029823804
10	0xbe22f81a	-0.15914956
11	0xbd2138c6	-0.039360784
12	0xbc95e0d1	-0.018295677
13	0x3bdc0d9e	0.0067154905
14	0x3d93e9c1	0.072223194
15	0x3d40d0cd	0.047074128
16	0xbd03e475	-0.032200295
17	0x3e194d77	0.14970957
18	0x3cb4c821	0.022068085
19	0x3e1fbb31	0.15598752
20	0x3d17f479	0.03709838
21	0x3dc54136	0.096315786
22	0xbd5198f6	-0.051171266
23	0xbdf0924f	-0.11746656
24	0xbe06d722	-0.13168004
25	0x3d93227a	0.0718431
26	0x3d68fb48	0.056880265
27	0xbdddf190	-0.1083709
28	0xbe0d2941	-0.13785268
29	0xbd0b2b4f	-0.03397685
30	0x3d3087b5	0.04309817
31	0xbd55d83a	-0.052208163
32	0x3daeef4a	0.085417345
33	0xbe2a0d8b	-0.16606729
34	0xbe05640f	-0.1302645
35	0xbd6c4a92	-0.057688303
36	0xbdef20e9	-0.11676199
37	0x3d912ce1	0.07088638
38	0xbdbd66d7	-0.09248131
39	0x3e00d030	0.12579417
40	0x3da89d1a	0.0823309
41	0xbde8081b	-0.11329671
42	0xbe22c692	-0.15896061
43	0xbd88fabd	-0.066884495
44	0xbdf1a7d3	-0.11799588
45	0x3e1fccb1	0.15605427
46	0xbe1540ba	-0.14575472
47	0x3b7b8e17	0.0038384253
48	0xbc837a67	-0.016049577
49	0xbb861cd4	-0.004092792
50	0x3e2a89a3	0.16654067
51	0xbdb90711	-0.09034551
52	0x3e28ca46	0.16483411
53	0xbe064687	-0.13112842
54	0xbdda0271	-0.10644997
55	0xbc2e98b9	-0.010656529
56	0xbdfcf196	-0.12350766
57	0x3e165937	0.1468247
58	0xb9ca7de7	-0.00038622247
59	0x3e1e4b93	0.15458517
60	0xbe446349	-0.191785
61	0xbe338349	-0.1753055
62	0x3c864c4a	0.0163938
63	0xbd453fa1	-0.048156384
64	0x3e16fc4a	0.14744678
65	0xbd3f4011	-0.046691958
66	0xbe1fb8d3	-0.15597849
67	0x3dc96217	0.09833162
68	0x3e254153	0.161382
69	0x3d4b539e	0.04964029
70	0x3d327cda	0.0435761
71	0x3d35f319	0.04442129
72	0xbd211ac0	-0.03933215
73	0xbe0dc770	-0.1384561
74	0x3df84c87	0.121239714
75	0xbe01141e	-0.1260533
76	0x3da36d8d	0.079798795
77	0xbd8e31f1	-0.06943119
78	0xbd3118ba	-0.04323647
79	0x3dfb9245	0.12283758
80	0xbcac0490	-0.02099827
81	0x3c903bce	0.017606642
82	0xbd7f8799	-0.062385175
83	0x3db96332	0.09052123
84	0x3c0c95fe	0.008580683
85	0x3d402529	0.04691044
86	0x3d31586f	0.043297227
87	0x3d06e15f	0.032929774
88	0xbc3c3158	-0.011486374
89	0xbe15342d	-0.14570685
90	0xbd5f367f	-0.05449533
91	0xbd6c9b56	-0.057765327
92	0x3dbf4ca7	0.09340792
93	0x3d7a5222	0.061113484
94	0xbe100f7e	-0.1406841
95	0x3e311dfd	0.17296596
96	0x3d87839b	0.066168986
97	0x3db2c1c5	0.08728365
98	0x3d8de33c	0.06928107
99	0xbe267913	-0.16257124
100	0xbe02e11b	-0.12781183
101	0x3d3d53eb	0.04622261
102	0x3db2fac3	0.08739235
103	0x3df020e9	0.11725027
104	0x3d3f1610	0.0466519
105	0x3ca64137	0.020294769
106	0xbe44b5c2	-0.1920996
107	0xb9839b5b	-0.00025102016
108	0x3e0965d5	0.13417752
109	0xbd09e796	-0.033668123
110	0x3d64a778	0.055823773
111	0xbd83c90e	-0.064348325
112	0xbbed101d	-0.007234587
113	0x3d549090	0.051895678
114	0xbe217aa3	-0.15769438
115	0x3cdccd01	0.026953222
116	0x3e0cf225	0.13764246
117	0x3db9ab90	0.09065926
118	0x3dfbdc5a	0.12297888
119	0x3ded1d92	0.11577906
120	0xbd9d82a1	-0.07690931
121	0x3e07a836	0.13247761
122	0xbe243892	-0.16037205
123	0x3d2b0d80	0.04176092
124	0xbdc0ecc1	-0.09420157
125	0xba76f3a1	-0.0009420459
126	0x3e300745	0.17190273
127	0x3defcfc3	0.11709549
128	0x3e1526a8	0.14565527
129	0xbc82a0b4	-0.01594577
130	0x3e0ecadd	0.13944574
131	0x3ded1769	0.11576731
132	0x3ae0bab5	0.0017145487
133	0xbe03a9ed	-0.1285779
134	0xbde39576	-0.11112492
135	0xbd780f07	-0.060561206
136	0x3e014197	0.12622677
137	0xbe11acd4	-0.14226085
138	0xbe128671	-0.14309098
139	0x3dab1282	0.083531395
140	0xbd398c08	-0.04529956
141	0xbdb66d53	-0.08907571
142	0x3db1d833	0.08683815
143	0xbe0c0b1a	-0.1367611
144	0xbb3a55f5	-0.0028432582
145	0x3daed35a	0.08536406
146	0xbd288b0f	-0.04114824
147	0x3c4c85c0	0.01248306
148	0x3e0fd70c	0.14046878
149	0x3e29813d	0.16553207
150	0x3e14fdab	0.14549892
151	0xbe0090fe	-0.1255531
152	0xbc8e3f5b	-0.017364195
153	0x3e41f2de	0.18940303
154	0x3d34b59f	0.04411852
155	0x3dd0e01b	0.10198995
156	0xbe2d789f	-0.16940545
157	0xbcc2390f	-0.023708848
158	0x3e29b8ce	0.16574404
159	0xbdbbda7e	-0.091725335
160	0x3dcd9306	0.10037808
161	0xbd654fc5	-0.055984277
162	0x3d6faeca	0.0585163
163	0xbd92cac7	-0.07167583
164	0xbe066c4c	-0.1312725
165	0x3d68dcb5	0.056851108
166	0xbd7791f3	-0.060441922
167	0xbe04ef80	-0.12981987
168	0x3d66f6d9	0.056387756
169	0x3d8750cb	0.06607207
170	0x3d184422	0.03717435
171	0xbd305540	-0.04305005
172	0x3dc7ae8f	0.09750091
173	0xbe1112c1	-0.1416731
174	0x3dfc17a9	0.123092
175	0x3d245c0a	0.040126838
176	0xbe18b663	-0.14913325
177	0x3cb12c26	0.021627497
178	0x3e101153	0.14069109
179	0xbe219639	-0.15779962
180	0xbd31329d	-0.04326116
181	0xbc69c6af	-0.014268561
182	0x3defbf0a	0.1170636
183	0x3be6bac1	0.007041306
184	0x3d23d659	0.03999934
185	0xbe016901	-0.12637712
186	0x3bb35dab	0.0054738126
187	0xbcecd619	-0.028910683
188	0xbe20712a	-0.15668169
189	0x3e249b77	0.1607493
190	0x3cff671a	0.031177092
191	0xbe126411	-0.14295985
192	0xbcc68b33	-0.024236297
193	0xbe21db2d	-0.15806265
194	0xbe34d2b9	-0.1765851
195	0xbdee31d7	-0.116306
196	0xbe131b87	-0.1436597
197	0x3dbb6d99	0.091517635
198	0xbdd90b26	-0.105978295
199	0xbe09fb51	-0.13474776
200	0x3db4b38d	0.08823309
201	0xbe31dcf5	-0.17369445
202	0xbd9b7216	-0.075901195
203	0xbe21a9f6	-0.15787491
204	0x3e37449d	0.17897268
205	0xbe165368	-0.14680254
206	0x3dfd2ba5	0.1236184
207	0xbd54dbb7	-0.05196735
208	0x3de65db6	0.11248343
209	0x3db079d7	0.08616989
210	0xbc8d5e2d	-0.01725682
211	0x3d0dbdbc	0.034604773
212	0xbdf75a12	-0.120777264
213	0x3e1b0b37	0.15140997
214	0x3db627c8	0.088943064
215	0xbe2c4666	-0.1682373
216	0xbe505f5d	-0.20348878
217	0x3e14442e	0.14479133
218	0x3d8a7223	0.06760051
219	0x3e13d600	0.14437103
220	0xbc5e2fed	-0.013561231
221	0x3e101eb9	0.1407422
222	0xbc673b00	-0.014113188
223	0xbe083e78	-0.1330508
224	0x3c7a7573	0.015286791
225	0xbd0265e3	-0.031835448
226	0xbe1adbb3	-0.15122871
227	0xbe32f29f	-0.17475365
228	0xbde468b3	-0.11152782
229	0xbe129771	-0.14315583
230	0x3c6a52dd	0.014301983
231	0xbe2b4095	-0.16723855
232	0x3d895d9e	0.06707309
233	0xbde7359e	-0.112895235
234	0xbc0d3b4b	-0.008620094
235	0x3dfbd27e	0.122960076
236	0xbe0ab000	-0.13543701
237	0x3e082ad5	0.13297589
238	0xbd6cb22d	-0.05778711
239	0xbd04977e	-0.032371037
240	0xbded340a	-0.11582191
241	0x3dcfdb6e	0.10149275
242	0xbdc17a9d	-0.09447215
243	0x3e1f9298	0.15583265
244	0x3e2589d5	0.1616586
245	0xbd9af35f	-0.075659506
246	0xbdfaee99	-0.1225254
247	0xbc7e0843	-0.015504899
248	0xbe2c39d1	-0.1681893
249	0x3e41d9b1	0.18930699
250	0x3cf85bc0	0.030317187
251	0xbdd30a5d	-0.10304711
252	0xbdfe0885	-0.12403969
253	0xbe1f8447	-0.15577804
254	0x3d84a6b4	0.064771086
255	0xbdceeecb	-0.1010414

MatMul_2 f4 [1, 32]
0	0x3d5ca4f5	0.053868253
1	0x3dab514d	0.08365116
2	0xbe56ce99	-0.20977248
3	0x3d22399b	0.039605718
4	0x3db89717	0.09013193
5	0xbd87f376	-0.06638233
6	0x3e6fb1d9	0.23407687
7	0x3cdba798	0.026813313
8	0xbebc17d8	-0.3673694
9	0xbec9091e	-0.39264768
10	0x3ca53de9	0.020171123
11	0xbec40cc3	-0.38290986
12	0x3de8ea5f	0.11372828
13	0x3da377f2	0.07981862
14	0x3db29635	0.08720056
15	0xbdb750ff	-0.08950996
16	0xbeb3ae81	-0.35094073
17	0x3e3c43e8	0.18385279
18	0x3e884faa	0.2662328
19	0x3e13f311	0.14448191
20	0xbd32973e	-0.043601267
21	0xbec713a9	-0.38882187
22	0xbeb56f2d	-0.35436383
23	0x3d87eb58	0.06636685
24	0x3e232d76	0.1593531
25	0x3d89e73f	0.0673356
26	0xbcf02eaf	-0.029319135
27	0xbec3b37b	-0.3822287
28	0x3d90ec25	0.07076291
29	0x3e15080b	0.1455385
30	0xbc15b0d6	-0.009136399
31	0x3e34c0ae	0.17651626
