hey_pum_key.tflite (tflite, 63536 bytes, 18 tensors)

tfl.pseudo_qconst1 i1 [1, 2368] scale=0.00622509 zero_point=0
0	0xe8	-0.14940216
1	0xe8	-0.14940216
2	0xd8	-0.2490036
3	0xea	-0.13695198
4	0xf2	-0.08715126
5	0xdf	-0.20542797
6	0xce	-0.3112545
7	0xdb	-0.23032834
8	0xfc	-0.02490036
9	0xff	-0.00622509
10	0x26	0.23655342
11	0xff	-0.00622509
12	0x19	0.15562725
13	0x0b	0.06847599
14	0xff	-0.00622509
15	0xf6	-0.0622509
16	0x02	0.01245018
17	0x3e	0.38595557
18	0xd2	-0.28635415
19	0xd5	-0.26767886
20	0xee	-0.11205162
21	0xac	-0.52290756
22	0xf3	-0.08092617
23	0xe2	-0.1867527
24	0x0a	0.0622509
25	0x02	0.01245018
26	0xf3	-0.08092617
27	0xe4	-0.17430252
28	0xf1	-0.09337635
29	0xea	-0.13695198
30	0xd4	-0.27390397
31	0x20	0.19920288
32	0xfb	-0.03112545
33	0xd7	-0.2552287
34	0x00	0.0
35	0xf8	-0.04980072
36	0xf5	-0.06847599
37	0xdc	-0.22410324
38	0xf1	-0.09337635
39	0xfa	-0.03735054
40	0xe4	-0.17430252
41	0xf9	-0.04357563
42	0x10	0.09960144
43	0xf5	-0.06847599
44	0xe4	-0.17430252
45	0xfd	-0.01867527
46	0x20	0.19920288
47	0xe9	-0.14317708
48	0xee	-0.11205162
49	0xe0	-0.19920288
50	0xf9	-0.04357563
51	0xf0	-0.09960144
52	0x1b	0.16807742
53	0xe0	-0.19920288
54	0xf1	-0.09337635
55	0x00	0.0
56	0xdb	-0.23032834
57	0xcb	-0.32992977
58	0xe0	-0.19920288
59	0xea	-0.13695198
60	0xf0	-0.09960144
61	0xf9	-0.04357563
62	0xbb	-0.42953122
63	0xdf	-0.20542797
64	0xfe	-0.01245018
65	0xf5	-0.06847599
66	0xf6	-0.0622509
67	0xef	-0.10582653
68	0xf6	-0.0622509
69	0xf4	-0.07470108
70	0xe1	-0.19297779
71	0xe3	-0.18052761
72	0x00	0.0
73	0xfb	-0.03112545
74	0x16	0.13695198
75	0x07	0.04357563
76	0x14	0.1245018
77	0x09	0.05602581
78	0x06	0.03735054
79	0xf9	-0.04357563
80	0xff	-0.00622509
81	0x27	0.24277851
82	0xe0	-0.19920288
83	0xe3	-0.18052761
84	0xf7	-0.05602581
85	0xb8	-0.44820648
86	0xe5	-0.16807742
87	0xed	-0.11827671
88	0x09	0.05602581
89	0x08	0.04980072
90	0xf9	-0.04357563
91	0xfd	-0.01867527
92	0xf3	-0.08092617
93	0xf7	-0.05602581
94	0xf1	-0.09337635
95	0x1e	0.1867527
96	0x0d	0.08092617
97	0xe9	-0.14317708
98	0x02	0.01245018
99	0xf9	-0.04357563
100	0xf6	-0.0622509
101	0xf4	-0.07470108
102	0xf0	-0.09960144
103	0x00	0.0
104	0xec	-0.1245018
105	0x06	0.03735054
106	0x07	0.04357563
107	0xfa	-0.03735054
108	0xf0	-0.09960144
109	0x02	0.01245018
110	0x18	0.14940216
111	0xf6	-0.0622509
112	0xfa	-0.03735054
113	0xf4	-0.07470108
114	0xfb	-0.03112545
115	0xef	-0.10582653
116	0x15	0.13072689
117	0xf2	-0.08715126
118	0xfc	-0.02490036
119	0xfe	-0.01245018
120	0xed	-0.11827671
121	0xdd	-0.21787815
122	0xf1	-0.09337635
123	0xf6	-0.0622509
124	0xfa	-0.03735054
125	0xfc	-0.02490036
126	0xd9	-0.24277851
127	0xe5	-0.16807742
128	0x08	0.04980072
129	0xee	-0.11205162
130	0xf3	-0.08092617
131	0xf9	-0.04357563
132	0x00	0.0
133	0xef	-0.10582653
134	0xe5	-0.16807742
135	0xee	-0.11205162
136	0x00	0.0
137	0x08	0.04980072
138	0x1b	0.16807742
139	0x0a	0.0622509
140	0x08	0.04980072
141	0x09	0.05602581
142	0x05	0.03112545
143	0x0b	0.06847599
144	0xf9	-0.04357563
145	0x28	0.2490036
146	0xf0	-0.09960144
147	0xe2	-0.1867527
148	0xf3	-0.08092617
149	0xc9	-0.34237996
150	0xdf	-0.20542797
151	0xec	-0.1245018
152	0x14	0.1245018
153	0x0c	0.07470108
154	0xf2	-0.08715126
155	0x05	0.03112545
156	0x03	0.01867527
157	0xff	-0.00622509
158	0xf7	-0.05602581
159	0x23	0.21787815
160	0xff	-0.00622509
161	0xfa	-0.03735054
162	0x03	0.01867527
163	0x00	0.0
164	0x07	0.04357563
165	0xf7	-0.05602581
166	0x01	0.00622509
167	0xf1	-0.09337635
168	0xe7	-0.15562725
169	0xfc	-0.02490036
170	0x06	0.03735054
171	0x05	0.03112545
172	0xf1	-0.09337635
173	0xfa	-0.03735054
174	0x05	0.03112545
175	0xf3	-0.08092617
176	0x0d	0.08092617
177	0xf8	-0.04980072
178	0xf9	-0.04357563
179	0xf1	-0.09337635
180	0x05	0.03112545
181	0xf2	-0.08715126
182	0x07	0.04357563
183	0x04	0.02490036
184	0xfb	-0.03112545
185	0xf5	-0.06847599
186	0xf6	-0.0622509
187	0xf0	-0.09960144
188	0x00	0.0
189	0xe7	-0.15562725
190	0xef	-0.10582653
191	0xe2	-0.1867527
192	0x05	0.03112545
193	0xfe	-0.01245018
194	0xff	-0.00622509
195	0xf8	-0.04980072
196	0x01	0.00622509
197	0xf8	-0.04980072
198	0xe7	-0.15562725
199	0x00	0.0
200	0x00	0.0
201	0x01	0.00622509
202	0x24	0.22410324
203	0x01	0.00622509
204	0xf4	-0.07470108
205	0xf8	-0.04980072
206	0xfd	-0.01867527
207	0x01	0.00622509
208	0xfc	-0.02490036
209	0x20	0.19920288
210	0xf6	-0.0622509
211	0xee	-0.11205162
212	0xfc	-0.02490036
213	0xe2	-0.1867527
214	0xfc	-0.02490036
215	0xfb	-0.03112545
216	0x09	0.05602581
217	0x04	0.02490036
218	0xf6	-0.0622509
219	0xfa	-0.03735054
220	0xfa	-0.03735054
221	0x01	0.00622509
222	0xf1	-0.09337635
223	0x1c	0.17430252
224	0xf6	-0.0622509
225	0xf5	-0.06847599
226	0x0e	0.08715126
227	0xf2	-0.08715126
228	0x09	0.05602581
229	0xfa	-0.03735054
230	0x0d	0.08092617
231	0x01	0.00622509
232	0xe4	-0.17430252
233	0xfb	-0.03112545
234	0xf9	-0.04357563
235	0xf8	-0.04980072
236	0xf5	-0.06847599
237	0xfb	-0.03112545
238	0x03	0.01867527
239	0x05	0.03112545
240	0x09	0.05602581
241	0xf9	-0.04357563
242	0xf4	-0.07470108
243	0x01	0.00622509
244	0x0a	0.0622509
245	0x00	0.0
246	0x03	0.01867527
247	0xff	-0.00622509
248	0xfb	-0.03112545
249	0xfb	-0.03112545
250	0xef	-0.10582653
251	0xf3	-0.08092617
252	0x14	0.1245018
253	0xe2	-0.1867527
254	0xf8	-0.04980072
255	0xed	-0.11827671

tfl.pseudo_qconst3 i1 [64, 1, 1, 64]
0	0xc9	-55
1	0x55	85
2	0xf4	-12
3	0x23	35
4	0x1f	31
5	0xfc	-4
6	0x7f	127
7	0x95	-107
8	0xd3	-45
9	0xc5	-59
10	0xe8	-24
11	0xb2	-78
12	0x18	24
13	0x3e	62
14	0x4e	78
15	0x6e	110
16	0x22	34
17	0x19	25
18	0xd6	-42
19	0x3d	61
20	0x26	38
21	0x0e	14
22	0xed	-19
23	0xf1	-15
24	0xf6	-10
25	0xb2	-78
26	0x12	18
27	0xcb	-53
28	0x4b	75
29	0x29	41
30	0x0c	12
31	0xe8	-24
32	0x3a	58
33	0x32	50
34	0xae	-82
35	0x0b	11
36	0x0b	11
37	0xf4	-12
38	0x27	39
39	0x34	52
40	0xdd	-35
41	0xfe	-2
42	0x67	103
43	0xdf	-33
44	0x15	21
45	0x8e	-114
46	0x09	9
47	0xd5	-43
48	0xed	-19
49	0x37	55
50	0x33	51
51	0x00	0
52	0xcc	-52
53	0xf5	-11
54	0x14	20
55	0x20	32
56	0xdd	-35
57	0xb7	-73
58	0x27	39
59	0xdf	-33
60	0x04	4
61	0xf8	-8
62	0xe7	-25
63	0x1c	28
64	0x02	2
65	0x1c	28
66	0x14	20
67	0x4f	79
68	0x2d	45
69	0x49	73
70	0x0e	14
71	0xb1	-79
72	0x13	19
73	0x29	41
74	0x05	5
75	0x04	4
76	0x14	20
77	0x10	16
78	0x06	6
79	0xe5	-27
80	0xf9	-7
81	0xbd	-67
82	0x2f	47
83	0x14	20
84	0xe5	-27
85	0xf8	-8
86	0x13	19
87	0x22	34
88	0x0b	11
89	0xe8	-24
90	0xe7	-25
91	0xe2	-30
92	0xea	-22
93	0xec	-20
94	0x50	80
95	0x81	-127
96	0xab	-85
97	0x85	-123
98	0x05	5
99	0x08	8
100	0x8d	-115
101	0xfd	-3
102	0xda	-38
103	0x4d	77
104	0x96	-106
105	0x07	7
106	0x40	64
107	0xf0	-16
108	0xbe	-66
109	0xdc	-36
110	0xf4	-12
111	0xcd	-51
112	0xeb	-21
113	0xdd	-35
114	0x2c	44
115	0xf7	-9
116	0x4e	78
117	0xbd	-67
118	0xe9	-23
119	0x0f	15
120	0x08	8
121	0xf4	-12
122	0x81	-127
123	0x1f	31
124	0x01	1
125	0xe0	-32
126	0x20	32
127	0xeb	-21
128	0x01	1
129	0x01	1
130	0xf8	-8
131	0xef	-17
132	0xee	-18
133	0x53	83
134	0x7f	127
135	0xb9	-71
136	0xf2	-14
137	0x09	9
138	0x21	33
139	0xda	-38
140	0x3a	58
141	0x19	25
142	0x20	32
143	0x30	48
144	0x05	5
145	0xe6	-26
146	0xb5	-75
147	0x34	52
148	0x09	9
149	0xa0	-96
150	0xee	-18
151	0xc8	-56
152	0x55	85
153	0x27	39
154	0x04	4
155	0xf4	-12
156	0x4f	79
157	0xf8	-8
158	0xf7	-9
159	0xf0	-16
160	0x17	23
161	0x5b	91
162	0xf3	-13
163	0x08	8
164	0x15	21
165	0x39	57
166	0xf7	-9
167	0xe3	-29
168	0xbb	-69
169	0x9c	-100
170	0x39	57
171	0xfd	-3
172	0xf2	-14
173	0xfb	-5
174	0x0a	10
175	0x06	6
176	0x00	0
177	0x30	48
178	0x13	19
179	0xbe	-66
180	0x0d	13
181	0xf3	-13
182	0x16	22
183	0xe2	-30
184	0xaa	-86
185	0xda	-38
186	0x12	18
187	0xb4	-76
188	0x09	9
189	0x3c	60
190	0x0c	12
191	0x1a	26
192	0xd8	-40
193	0x81	-127
194	0xe3	-29
195	0xdc	-36
196	0xe9	-23
197	0x43	67
198	0xca	-54
199	0x10	16
200	0xd7	-41
201	0xf3	-13
202	0xcb	-53
203	0xfc	-4
204	0x1d	29
205	0x0b	11
206	0x07	7
207	0xeb	-21
208	0xf6	-10
209	0x0e	14
210	0x0c	12
211	0xfe	-2
212	0xfe	-2
213	0xfc	-4
214	0x03	3
215	0x01	1
216	0xe4	-28
217	0xd7	-41
218	0xd7	-41
219	0xea	-22
220	0x3e	62
221	0x27	39
222	0xdd	-35
223	0x42	66
224	0x3e	62
225	0x0f	15
226	0xf6	-10
227	0x23	35
228	0xeb	-21
229	0x0d	13
230	0x14	20
231	0x24	36
232	0x0a	10
233	0x03	3
234	0x0e	14
235	0xe4	-28
236	0xc3	-61
237	0xee	-18
238	0xee	-18
239	0x1d	29
240	0x0e	14
241	0x14	20
242	0x2b	43
243	0x02	2
244	0xc0	-64
245	0xf5	-11
246	0xd9	-39
247	0x25	37
248	0x1a	26
249	0x0d	13
250	0xdb	-37
251	0x10	16
252	0x18	24
253	0xda	-38
254	0x40	64
255	0x0c	12

tfl.pseudo_qconst5 i1 [1, 23, 1, 64]
0	0x7f	127
1	0x10	16
2	0xb5	-75
3	0xfe	-2
4	0x33	51
5	0x7f	127
6	0x9e	-98
7	0x2a	42
8	0xca	-54
9	0xe7	-25
10	0x81	-127
11	0xfb	-5
12	0x81	-127
13	0xca	-54
14	0xa4	-92
15	0x81	-127
16	0x3c	60
17	0x1c	28
18	0xfa	-6
19	0x52	82
20	0x47	71
21	0xb7	-73
22	0x97	-105
23	0x7f	127
24	0x7f	127
25	0x2f	47
26	0x81	-127
27	0x67	103
28	0x7f	127
29	0x2a	42
30	0x3d	61
31	0x02	2
32	0xe1	-31
33	0x03	3
34	0x7f	127
35	0x21	33
36	0x14	20
37	0x81	-127
38	0x81	-127
39	0x0d	13
40	0xbc	-68
41	0xda	-38
42	0x7f	127
43	0x81	-127
44	0x81	-127
45	0xf1	-15
46	0xd7	-41
47	0x52	82
48	0x82	-126
49	0x08	8
50	0x6a	106
51	0x93	-109
52	0x1b	27
53	0xc4	-60
54	0xfd	-3
55	0x01	1
56	0xe5	-27
57	0x7f	127
58	0xa8	-88
59	0x7f	127
60	0x45	69
61	0x1c	28
62	0xcb	-53
63	0x28	40
64	0x6a	106
65	0x13	19
66	0xcf	-49
67	0xff	-1
68	0x1d	29
69	0x73	115
70	0xad	-83
71	0x19	25
72	0xdc	-36
73	0xc8	-56
74	0x9a	-102
75	0xea	-22
76	0xa1	-95
77	0xdb	-37
78	0xaf	-81
79	0x93	-109
80	0x38	56
81	0x0f	15
82	0xe3	-29
83	0x46	70
84	0x45	69
85	0xee	-18
86	0xc6	-58
87	0x52	82
88	0x6f	111
89	0x55	85
90	0xc2	-62
91	0x32	50
92	0x68	104
93	0x2c	44
94	0xf0	-16
95	0x00	0
96	0xe9	-23
97	0x03	3
98	0x75	117
99	0xf5	-11
100	0x2a	42
101	0x83	-125
102	0xa3	-93
103	0xcf	-49
104	0xdb	-37
105	0xd3	-45
106	0x6c	108
107	0x88	-120
108	0x99	-103
109	0xea	-22
110	0x10	16
111	0x7f	127
112	0x8d	-115
113	0x10	16
114	0x6b	107
115	0x81	-127
116	0x22	34
117	0xbe	-66
118	0xa7	-89
119	0x0f	15
120	0xf0	-16
121	0x68	104
122	0xba	-70
123	0x4d	77
124	0x6b	107
125	0x26	38
126	0x0e	14
127	0x07	7
128	0x71	113
129	0x14	20
130	0xfa	-6
131	0x14	20
132	0x47	71
133	0x6e	110
134	0xa3	-93
135	0x12	18
136	0xf2	-14
137	0xcf	-49
138	0x9f	-97
139	0xf7	-9
140	0xb3	-77
141	0xeb	-21
142	0xd2	-46
143	0xa2	-94
144	0x49	73
145	0x01	1
146	0xc5	-59
147	0x57	87
148	0x1d	29
149	0xc8	-56
150	0xb2	-78
151	0x41	65
152	0x3f	63
153	0x31	49
154	0xcd	-51
155	0x50	80
156	0x4c	76
157	0x2b	43
158	0xe3	-29
159	0xf9	-7
160	0xee	-18
161	0xfc	-4
162	0x55	85
163	0xe1	-31
164	0x34	52
165	0x8a	-118
166	0xbd	-67
167	0x10	16
168	0x06	6
169	0xe4	-28
170	0x4c	76
171	0xad	-83
172	0xb2	-78
173	0xc8	-56
174	0x42	66
175	0x3c	60
176	0x81	-127
177	0xf8	-8
178	0x5a	90
179	0x9b	-101
180	0x19	25
181	0xe1	-31
182	0x9b	-101
183	0x03	3
184	0xf7	-9
185	0x4d	77
186	0xdd	-35
187	0x05	5
188	0x71	113
189	0x1d	29
190	0xf4	-12
191	0x10	16
192	0x58	88
193	0x18	24
194	0x08	8
195	0x20	32
196	0x3d	61
197	0x65	101
198	0x9f	-97
199	0x02	2
200	0x06	6
201	0xcb	-53
202	0xb1	-79
203	0xf1	-15
204	0xc5	-59
205	0xd8	-40
206	0xd5	-43
207	0x9c	-100
208	0x2f	47
209	0xcd	-51
210	0xb8	-72
211	0x51	81
212	0x0d	13
213	0xdf	-33
214	0xca	-54
215	0x2c	44
216	0x2b	43
217	0x4a	74
218	0xd7	-41
219	0x3e	62
220	0x4c	76
221	0x48	72
222	0xe7	-25
223	0xfe	-2
224	0xdf	-33
225	0xf7	-9
226	0x59	89
227	0x01	1
228	0x46	70
229	0x91	-111
230	0xb8	-72
231	0x39	57
232	0x28	40
233	0xea	-22
234	0x46	70
235	0xb2	-78
236	0xdb	-37
237	0xdb	-37
238	0x55	85
239	0x38	56
240	0xb8	-72
241	0xf8	-8
242	0x43	67
243	0xbc	-68
244	0x13	19
245	0xc7	-57
246	0xea	-22
247	0xcf	-49
248	0x24	36
249	0x5e	94
250	0xd0	-48
251	0x0d	13
252	0x6e	110
253	0x1a	26
254	0xc8	-56
255	0x2c	44

tfl.pseudo_qconst7 i1 [64, 1, 1, 64]
0	0x21	33
1	0x75	117
2	0x11	17
3	0xfa	-6
4	0xef	-17
5	0xdc	-36
6	0x07	7
7	0xd5	-43
8	0x11	17
9	0xf2	-14
10	0x9e	-98
11	0x43	67
12	0x2b	43
13	0xb6	-74
14	0xe3	-29
15	0x44	68
16	0xe5	-27
17	0x1b	27
18	0xd8	-40
19	0xe1	-31
20	0x0d	13
21	0xf3	-13
22	0x41	65
23	0xe4	-28
24	0x07	7
25	0x02	2
26	0xea	-22
27	0xee	-18
28	0x44	68
29	0xe0	-32
30	0xf2	-14
31	0x18	24
32	0xd0	-48
33	0x9c	-100
34	0xe1	-31
35	0x09	9
36	0x2e	46
37	0xb6	-74
38	0xce	-50
39	0x38	56
40	0xeb	-21
41	0xb3	-77
42	0x43	67
43	0xec	-20
44	0x7f	127
45	0x51	81
46	0xef	-17
47	0xd8	-40
48	0x18	24
49	0xca	-54
50	0xfd	-3
51	0xb8	-72
52	0xdf	-33
53	0xf4	-12
54	0x00	0
55	0x11	17
56	0x20	32
57	0x05	5
58	0xee	-18
59	0x19	25
60	0xdf	-33
61	0xf9	-7
62	0xed	-19
63	0xdb	-37
64	0x52	82
65	0xe9	-23
66	0x31	49
67	0x3e	62
68	0xcc	-52
69	0x11	17
70	0x45	69
71	0xe0	-32
72	0x30	48
73	0xf0	-16
74	0x1e	30
75	0x1f	31
76	0x1b	27
77	0x16	22
78	0x12	18
79	0x1a	26
80	0xf1	-15
81	0xe0	-32
82	0xc0	-64
83	0x05	5
84	0x04	4
85	0xb2	-78
86	0xce	-50
87	0x0d	13
88	0xc0	-64
89	0x22	34
90	0xf3	-13
91	0xbb	-69
92	0x2a	42
93	0x26	38
94	0x26	38
95	0x0a	10
96	0x19	25
97	0xf9	-7
98	0x11	17
99	0x41	65
100	0x14	20
101	0xaf	-81
102	0x28	40
103	0xe0	-32
104	0x00	0
105	0x05	5
106	0x33	51
107	0x3d	61
108	0x24	36
109	0x31	49
110	0x1e	30
111	0x1a	26
112	0xe7	-25
113	0xef	-17
114	0xfd	-3
115	0x05	5
116	0xf3	-13
117	0x28	40
118	0xdd	-35
119	0x89	-119
120	0x7f	127
121	0x4c	76
122	0x2d	45
123	0x07	7
124	0xdf	-33
125	0x43	67
126	0x1a	26
127	0x2e	46
128	0x0f	15
129	0x07	7
130	0x3d	61
131	0x7f	127
132	0x06	6
133	0xff	-1
134	0xdd	-35
135	0x04	4
136	0xd0	-48
137	0x03	3
138	0x18	24
139	0x37	55
140	0x3b	59
141	0x20	32
142	0x09	9
143	0xd5	-43
144	0xe7	-25
145	0x1d	29
146	0x24	36
147	0xf9	-7
148	0x09	9
149	0x10	16
150	0x0a	10
151	0xd8	-40
152	0xee	-18
153	0x15	21
154	0x20	32
155	0xe3	-29
156	0xde	-34
157	0x67	103
158	0x15	21
159	0x29	41
160	0xff	-1
161	0x0b	11
162	0x34	52
163	0x1d	29
164	0xbe	-66
165	0xf3	-13
166	0x17	23
167	0xfe	-2
168	0xd4	-44
169	0x0e	14
170	0xe8	-24
171	0xd9	-39
172	0x2f	47
173	0x29	41
174	0xf8	-8
175	0xe7	-25
176	0x37	55
177	0xf5	-11
178	0x1f	31
179	0x5b	91
180	0x12	18
181	0x41	65
182	0xf0	-16
183	0xeb	-21
184	0xc3	-61
185	0xfd	-3
186	0xfb	-5
187	0xf7	-9
188	0x46	70
189	0xe3	-29
190	0xe5	-27
191	0x1e	30
192	0x19	25
193	0xfc	-4
194	0xc3	-61
195	0xad	-83
196	0x14	20
197	0xf8	-8
198	0xd8	-40
199	0x08	8
200	0xf3	-13
201	0x2c	44
202	0xb8	-72
203	0x1e	30
204	0x03	3
205	0x04	4
206	0xf7	-9
207	0x06	6
208	0x2e	46
209	0x2d	45
210	0xb1	-79
211	0xec	-20
212	0x44	68
213	0x10	16
214	0x67	103
215	0xea	-22
216	0x35	53
217	0x15	21
218	0xf7	-9
219	0x50	80
220	0xe7	-25
221	0xf4	-12
222	0x88	-120
223	0xaa	-86
224	0xdb	-37
225	0x28	40
226	0x0b	11
227	0xe3	-29
228	0xd9	-39
229	0x20	32
230	0x07	7
231	0x2c	44
232	0x2e	46
233	0xc2	-62
234	0x04	4
235	0xd9	-39
236	0xc3	-61
237	0xc5	-59
238	0x04	4
239	0xf0	-16
240	0xb0	-80
241	0x4b	75
242	0xfc	-4
243	0xab	-85
244	0x3f	63
245	0x01	1
246	0x7f	127
247	0x43	67
248	0xf8	-8
249	0xe8	-24
250	0xd9	-39
251	0xf6	-10
252	0xe3	-29
253	0x0d	13
254	0xdf	-33
255	0xd1	-47

tfl.pseudo_qconst9 i1 [1, 15, 1, 32]
0	0x37	55
1	0xea	-22
2	0x81	-127
3	0x81	-127
4	0x76	118
5	0x00	0
6	0xe6	-26
7	0xeb	-21
8	0xdf	-33
9	0x24	36
10	0xbd	-67
11	0x20	32
12	0x70	112
13	0x7f	127
14	0x1a	26
15	0x8f	-113
16	0x4f	79
17	0xd9	-39
18	0x81	-127
19	0xa3	-93
20	0x53	83
21	0x19	25
22	0x30	48
23	0xd2	-46
24	0xd0	-48
25	0x03	3
26	0x81	-127
27	0x81	-127
28	0x92	-110
29	0x7d	125
30	0x81	-127
31	0x77	119
32	0x38	56
33	0x09	9
34	0xa6	-90
35	0xb1	-79
36	0x49	73
37	0x45	69
38	0xe5	-27
39	0xad	-83
40	0xc8	-56
41	0x2b	43
42	0xaa	-86
43	0x1f	31
44	0x68	104
45	0x56	86
46	0x46	70
47	0xd2	-46
48	0x6a	106
49	0xcb	-53
50	0xbf	-65
51	0x8a	-118
52	0x18	24
53	0xfe	-2
54	0x2a	42
55	0xde	-34
56	0xcf	-49
57	0x0d	13
58	0xb1	-79
59	0xad	-83
60	0x81	-127
61	0x23	35
62	0xbc	-68
63	0x47	71
64	0xfe	-2
65	0x01	1
66	0xc1	-63
67	0x91	-111
68	0x3d	61
69	0x1a	26
70	0xdd	-35
71	0x9e	-98
72	0x0d	13
73	0x1e	30
74	0x84	-124
75	0xec	-20
76	0x7f	127
77	0x3f	63
78	0xfd	-3
79	0x81	-127
80	0x65	101
81	0xde	-34
82	0xb7	-73
83	0xd5	-43
84	0x3f	63
85	0x27	39
86	0x18	24
87	0x0a	10
88	0x03	3
89	0xf0	-16
90	0x94	-108
91	0x94	-108
92	0xa2	-94
93	0xfd	-3
94	0xd1	-47
95	0x2c	44
96	0xd1	-47
97	0xb0	-80
98	0xf6	-10
99	0xd1	-47
100	0x09	9
101	0x2c	44
102	0x9a	-102
103	0x8c	-116
104	0xc3	-61
105	0x27	39
106	0xbd	-67
107	0xe6	-26
108	0x49	73
109	0x21	33
110	0xe5	-27
111	0x91	-111
112	0x52	82
113	0xf0	-16
114	0xf4	-12
115	0xb9	-71
116	0xf2	-14
117	0x1b	27
118	0x04	4
119	0xfc	-4
120	0x01	1
121	0xe5	-27
122	0xd0	-48
123	0x89	-119
124	0x0b	11
125	0xec	-20
126	0xdf	-33
127	0x01	1
128	0x09	9
129	0xab	-85
130	0xd1	-47
131	0xa2	-94
132	0x05	5
133	0x7f	127
134	0xb7	-73
135	0x8e	-114
136	0xdc	-36
137	0x07	7
138	0xce	-50
139	0xf7	-9
140	0x63	99
141	0x3e	62
142	0x00	0
143	0xc3	-61
144	0x3c	60
145	0x11	17
146	0xc4	-60
147	0x2f	47
148	0xe0	-32
149	0x08	8
150	0x1c	28
151	0x23	35
152	0x16	22
153	0x0d	13
154	0xc8	-56
155	0xb6	-74
156	0xfa	-6
157	0xf5	-11
158	0xc5	-59
159	0xc9	-55
160	0x05	5
161	0xde	-34
162	0xe4	-28
163	0xb3	-77
164	0x44	68
165	0x39	57
166	0x08	8
167	0x85	-123
168	0xdd	-35
169	0x02	2
170	0x2e	46
171	0xeb	-21
172	0x71	113
173	0x12	18
174	0x31	49
175	0xe2	-30
176	0x62	98
177	0x16	22
178	0xf3	-13
179	0x5c	92
180	0xfb	-5
181	0xfc	-4
182	0xfe	-2
183	0x05	5
184	0x18	24
185	0xf5	-11
186	0xf5	-11
187	0xb5	-75
188	0x60	96
189	0xd3	-45
190	0xe5	-27
191	0xd6	-42
192	0xf5	-11
193	0xb0	-80
194	0xed	-19
195	0xe4	-28
196	0x20	32
197	0x68	104
198	0xe1	-31
199	0x81	-127
200	0xf9	-7
201	0xdb	-37
202	0x41	65
203	0x45	69
204	0x5f	95
205	0xf5	-11
206	0x0e	14
207	0x0e	14
208	0x1f	31
209	0x7f	127
210	0xcf	-49
211	0x7f	127
212	0x2a	42
213	0xec	-20
214	0xfd	-3
215	0x0f	15
216	0x08	8
217	0x9d	-99
218	0x13	19
219	0xd3	-45
220	0x0a	10
221	0xa9	-87
222	0xf9	-7
223	0xef	-17
224	0xf5	-11
225	0x15	21
226	0xec	-20
227	0xd0	-48
228	0x15	21
229	0x71	113
230	0x1e	30
231	0xe1	-31
232	0x12	18
233	0xd5	-43
234	0x7c	124
235	0xfe	-2
236	0x35	53
237	0xf3	-13
238	0x2a	42
239	0x4e	78
240	0x64	100
241	0x6c	108
242	0xd7	-41
243	0x71	113
244	0x4e	78
245	0xae	-82
246	0xfd	-3
247	0x07	7
248	0x0d	13
249	0xc6	-58
250	0x25	37
251	0xe4	-28
252	0x39	57
253	0x97	-105
254	0xe6	-26
255	0x18	24

tfl.pseudo_qconst11 i1 [1, 9, 1, 32]
0	0xea	-22
1	0x22	34
2	0xf0	-16
3	0x38	56
4	0xd2	-46
5	0x26	38
6	0x03	3
7	0x49	73
8	0x7f	127
9	0x43	67
10	0x36	54
11	0x9b	-101
12	0x0e	14
13	0xd2	-46
14	0x04	4
15	0xac	-84
16	0x61	97
17	0xab	-85
18	0x81	-127
19	0x03	3
20	0xf2	-14
21	0x08	8
22	0x9a	-102
23	0xb6	-74
24	0x00	0
25	0x70	112
26	0xea	-22
27	0xe1	-31
28	0x45	69
29	0x32	50
30	0xfe	-2
31	0x81	-127
32	0xea	-22
33	0xf3	-13
34	0x25	37
35	0x1a	26
36	0xa4	-92
37	0xff	-1
38	0xf5	-11
39	0x07	7
40	0xd2	-46
41	0x29	41
42	0x45	69
43	0x93	-109
44	0xe3	-29
45	0xa7	-89
46	0x2c	44
47	0x81	-127
48	0x7f	127
49	0xba	-70
50	0xab	-85
51	0x03	3
52	0x46	70
53	0xa7	-89
54	0x94	-108
55	0x81	-127
56	0xf0	-16
57	0x28	40
58	0x15	21
59	0x27	39
60	0x32	50
61	0xfa	-6
62	0xb4	-76
63	0xc1	-63
64	0xea	-22
65	0x2e	46
66	0xb6	-74
67	0x23	35
68	0xda	-38
69	0x4e	78
70	0xb4	-76
71	0x1e	30
72	0x0a	10
73	0xe5	-27
74	0x4a	74
75	0x81	-127
76	0xd2	-46
77	0x81	-127
78	0xed	-19
79	0xf0	-16
80	0x18	24
81	0xa5	-91
82	0xec	-20
83	0x15	21
84	0x47	71
85	0xf1	-15
86	0xf5	-11
87	0x30	48
88	0xf5	-11
89	0x04	4
90	0x7f	127
91	0x2a	42
92	0x60	96
93	0x32	50
94	0xcf	-49
95	0xb0	-80
96	0xb5	-75
97	0x29	41
98	0x81	-127
99	0xdb	-37
100	0x81	-127
101	0x32	50
102	0xfc	-4
103	0x39	57
104	0x08	8
105	0x53	83
106	0x5f	95
107	0xba	-70
108	0xdd	-35
109	0xb5	-75
110	0x02	2
111	0x70	112
112	0xff	-1
113	0xde	-34
114	0x8f	-113
115	0xff	-1
116	0x6f	111
117	0xcf	-49
118	0x11	17
119	0x56	86
120	0xe4	-28
121	0x2b	43
122	0x0a	10
123	0xfb	-5
124	0xf6	-10
125	0x01	1
126	0xae	-82
127	0xdd	-35
128	0xbb	-69
129	0xee	-18
130	0xb0	-80
131	0xbd	-67
132	0xa3	-93
133	0x27	39
134	0xfc	-4
135	0xc2	-62
136	0x0c	12
137	0x41	65
138	0xde	-34
139	0x0c	12
140	0xe4	-28
141	0x8d	-115
142	0xf0	-16
143	0x40	64
144	0x6a	106
145	0xc5	-59
146	0x12	18
147	0x00	0
148	0x71	113
149	0x7f	127
150	0x1b	27
151	0xab	-85
152	0x07	7
153	0x7f	127
154	0xdc	-36
155	0xd8	-40
156	0xb3	-77
157	0xff	-1
158	0x81	-127
159	0x19	25
160	0xbf	-65
161	0xa9	-87
162	0xd9	-39
163	0xbd	-67
164	0xd1	-47
165	0x35	53
166	0x46	70
167	0xba	-70
168	0xc8	-56
169	0x7f	127
170	0xef	-17
171	0x37	55
172	0x34	52
173	0xbe	-66
174	0x1a	26
175	0x71	113
176	0x67	103
177	0xe6	-26
178	0xba	-70
179	0xe4	-28
180	0xdb	-37
181	0x7f	127
182	0x09	9
183	0x5b	91
184	0xfd	-3
185	0x17	23
186	0x26	38
187	0xc7	-57
188	0x8c	-116
189	0xa4	-92
190	0xac	-84
191	0x5d	93
192	0xb5	-75
193	0xd0	-48
194	0xbf	-65
195	0x8d	-115
196	0xb4	-76
197	0xf9	-7
198	0x54	84
199	0xaa	-86
200	0xa8	-88
201	0x73	115
202	0xc1	-63
203	0x41	65
204	0x22	34
205	0x05	5
206	0x47	71
207	0x50	80
208	0x73	115
209	0xad	-83
210	0xb9	-71
211	0x10	16
212	0xec	-20
213	0x58	88
214	0x51	81
215	0xd0	-48
216	0x28	40
217	0x03	3
218	0xf0	-16
219	0x1d	29
220	0x8c	-116
221	0x8f	-113
222	0xbe	-66
223	0x7b	123
224	0xa8	-88
225	0x86	-122
226	0x9b	-101
227	0x81	-127
228	0xd2	-46
229	0x9a	-102
230	0x7f	127
231	0x81	-127
232	0xdc	-36
233	0x03	3
234	0x81	-127
235	0x5d	93
236	0x4f	79
237	0xc2	-62
238	0x62	98
239	0x98	-104
240	0xe8	-24
241	0x9b	-101
242	0x97	-105
243	0x4e	78
244	0xf4	-12
245	0x15	21
246	0x14	20
247	0xf3	-13
248	0x4a	74
249	0xf7	-9
250	0xa0	-96
251	0x3d	61
252	0xdc	-36
253	0x98	-104
254	0x84	-124
255	0x6a	106

tfl.pseudo_qconst13 i1 [64, 1, 1, 64]
0	0x7f	127
1	0xdf	-33
2	0xa0	-96
3	0xc3	-61
4	0xf4	-12
5	0x31	49
6	0xfe	-2
7	0xf6	-10
8	0x33	51
9	0x07	7
10	0x9f	-97
11	0x1b	27
12	0x67	103
13	0xc2	-62
14	0x19	25
15	0x10	16
16	0x67	103
17	0xa0	-96
18	0x51	81
19	0x01	1
20	0x14	20
21	0xf3	-13
22	0x68	104
23	0x07	7
24	0x2a	42
25	0x29	41
26	0x52	82
27	0xbb	-69
28	0xee	-18
29	0x18	24
30	0xcd	-51
31	0x44	68
32	0xfd	-3
33	0x24	36
34	0x3b	59
35	0x9a	-102
36	0x24	36
37	0xf7	-9
38	0xa8	-88
39	0x3e	62
40	0x09	9
41	0x9c	-100
42	0xa2	-94
43	0xf7	-9
44	0x1d	29
45	0xfa	-6
46	0x31	49
47	0xc1	-63
48	0xe4	-28
49	0x4d	77
50	0x26	38
51	0xf5	-11
52	0xcf	-49
53	0x10	16
54	0xd5	-43
55	0xf9	-7
56	0x36	54
57	0x5e	94
58	0x40	64
59	0x8b	-117
60	0xf6	-10
61	0x33	51
62	0xd5	-43
63	0x1a	26
64	0xe5	-27
65	0xfd	-3
66	0x18	24
67	0xfa	-6
68	0x20	32
69	0x0e	14
70	0x3d	61
71	0xea	-22
72	0x12	18
73	0x2e	46
74	0xc1	-63
75	0x27	39
76	0xe0	-32
77	0x00	0
78	0xf9	-7
79	0x00	0
80	0x03	3
81	0xaf	-81
82	0xc4	-60
83	0x2c	44
84	0xd2	-46
85	0x2c	44
86	0xf2	-14
87	0x08	8
88	0x12	18
89	0xb9	-71
90	0x0e	14
91	0x44	68
92	0x00	0
93	0x23	35
94	0x33	51
95	0xce	-50
96	0x0b	11
97	0xd9	-39
98	0xbc	-68
99	0x29	41
100	0xbb	-69
101	0xe7	-25
102	0xec	-20
103	0x28	40
104	0xda	-38
105	0xf1	-15
106	0x37	55
107	0x16	22
108	0x81	-127
109	0xdf	-33
110	0xd5	-43
111	0x03	3
112	0x31	49
113	0x0d	13
114	0xe9	-23
115	0x33	51
116	0xd0	-48
117	0x54	84
118	0xf4	-12
119	0xc7	-57
120	0xec	-20
121	0x04	4
122	0xf5	-11
123	0xe5	-27
124	0xe7	-25
125	0xa3	-93
126	0x04	4
127	0x16	22
128	0x1a	26
129	0xeb	-21
130	0x22	34
131	0x02	2
132	0xdb	-37
133	0xd5	-43
134	0x07	7
135	0xfa	-6
136	0x16	22
137	0xc8	-56
138	0xd7	-41
139	0x38	56
140	0x40	64
141	0xa1	-95
142	0xf0	-16
143	0x7f	127
144	0x40	64
145	0xc7	-57
146	0x59	89
147	0xe9	-23
148	0x17	23
149	0xcc	-52
150	0xe8	-24
151	0xdf	-33
152	0x1a	26
153	0xf9	-7
154	0xf3	-13
155	0xf5	-11
156	0x15	21
157	0x3d	61
158	0xbb	-69
159	0xfd	-3
160	0x55	85
161	0x08	8
162	0x32	50
163	0x3c	60
164	0xf2	-14
165	0xc5	-59
166	0xe0	-32
167	0x09	9
168	0xb8	-72
169	0xf1	-15
170	0xe1	-31
171	0xe2	-30
172	0xed	-19
173	0xda	-38
174	0x26	38
175	0x1e	30
176	0x31	49
177	0x60	96
178	0x35	53
179	0xeb	-21
180	0xea	-22
181	0xb5	-75
182	0xfe	-2
183	0xe1	-31
184	0xe9	-23
185	0xf6	-10
186	0x30	48
187	0xaa	-86
188	0x10	16
189	0x01	1
190	0x3d	61
191	0xf5	-11
192	0x03	3
193	0x2a	42
194	0xff	-1
195	0xd7	-41
196	0xdb	-37
197	0x13	19
198	0xf4	-12
199	0x03	3
200	0xee	-18
201	0xe4	-28
202	0xbe	-66
203	0xac	-84
204	0x45	69
205	0x0d	13
206	0xf6	-10
207	0x4f	79
208	0x33	51
209	0xd3	-45
210	0xcd	-51
211	0xa8	-88
212	0x7f	127
213	0xdf	-33
214	0x14	20
215	0xb4	-76
216	0x1e	30
217	0xf9	-7
218	0xd2	-46
219	0xc7	-57
220	0x39	57
221	0x48	72
222	0xd6	-42
223	0x09	9
224	0x09	9
225	0xf4	-12
226	0x36	54
227	0x07	7
228	0x19	25
229	0xfa	-6
230	0xf2	-14
231	0x11	17
232	0xd1	-47
233	0x05	5
234	0xd5	-43
235	0xfc	-4
236	0xf6	-10
237	0x0a	10
238	0xf8	-8
239	0xd1	-47
240	0xfd	-3
241	0x2a	42
242	0x3d	61
243	0x46	70
244	0xdf	-33
245	0xf0	-16
246	0xdb	-37
247	0xea	-22
248	0x22	34
249	0xee	-18
250	0x34	52
251	0xb0	-80
252	0xef	-17
253	0x0d	13
254	0x10	16
255	0x3f	63

tfl.pseudo_qconst15 i1 [1, 11, 1, 32]
0	0x36	54
1	0x81	-127
2	0x6e	110
3	0x7f	127
4	0x14	20
5	0xee	-18
6	0x81	-127
7	0x7f	127
8	0xd1	-47
9	0x96	-106
10	0x16	22
11	0x4f	79
12	0xb1	-79
13	0x81	-127
14	0x50	80
15	0x1e	30
16	0xdb	-37
17	0xa5	-91
18	0x1b	27
19	0x13	19
20	0xf1	-15
21	0x81	-127
22	0xcd	-51
23	0xb3	-77
24	0xc6	-58
25	0x81	-127
26	0x18	24
27	0x2e	46
28	0x34	52
29	0xf0	-16
30	0xeb	-21
31	0xf9	-7
32	0x2f	47
33	0xbb	-69
34	0x54	84
35	0x61	97
36	0x12	18
37	0x9e	-98
38	0x99	-103
39	0x35	53
40	0xc0	-64
41	0x91	-111
42	0xd0	-48
43	0x55	85
44	0xdf	-33
45	0xa7	-89
46	0x6a	106
47	0xf9	-7
48	0x50	80
49	0xa1	-95
50	0x62	98
51	0x2f	47
52	0x2d	45
53	0xbe	-66
54	0xd1	-47
55	0x90	-112
56	0xf9	-7
57	0x88	-120
58	0x11	17
59	0x55	85
60	0x72	114
61	0x05	5
62	0x89	-119
63	0xed	-19
64	0xd6	-42
65	0xa6	-90
66	0x3c	60
67	0x08	8
68	0xdf	-33
69	0xc8	-56
70	0x92	-110
71	0x3f	63
72	0xf1	-15
73	0xbe	-66
74	0xbb	-69
75	0xdd	-35
76	0xc2	-62
77	0xc8	-56
78	0xf5	-11
79	0x1b	27
80	0xf3	-13
81	0xf0	-16
82	0x4f	79
83	0x53	83
84	0xe7	-25
85	0xa2	-94
86	0xdc	-36
87	0xce	-50
88	0xd9	-39
89	0xad	-83
90	0xe2	-30
91	0x52	82
92	0x7f	127
93	0xe5	-27
94	0x19	25
95	0xda	-38
96	0xbd	-67
97	0xde	-34
98	0x31	49
99	0xcd	-51
100	0xef	-17
101	0x1c	28
102	0xe8	-24
103	0x45	69
104	0xc4	-60
105	0xc5	-59
106	0xec	-20
107	0xb6	-74
108	0xbf	-65
109	0xd6	-42
110	0x7f	127
111	0x31	49
112	0x40	64
113	0x86	-122
114	0x4d	77
115	0xf9	-7
116	0xc5	-59
117	0xc0	-64
118	0x15	21
119	0xec	-20
120	0x7a	122
121	0xc0	-64
122	0xab	-85
123	0x48	72
124	0x6e	110
125	0xf5	-11
126	0x54	84
127	0xb4	-76
128	0x8e	-114
129	0x9b	-101
130	0xfc	-4
131	0x15	21
132	0xf5	-11
133	0xf6	-10
134	0x3b	59
135	0x18	24
136	0x97	-105
137	0x81	-127
138	0x6c	108
139	0xf4	-12
140	0x95	-107
141	0xe0	-32
142	0x59	89
143	0x22	34
144	0xf4	-12
145	0x92	-110
146	0x58	88
147	0xc7	-57
148	0xd9	-39
149	0xf6	-10
150	0xfd	-3
151	0xfb	-5
152	0x2f	47
153	0xc1	-63
154	0x83	-125
155	0x81	-127
156	0x6a	106
157	0xf0	-16
158	0x77	119
159	0xad	-83
160	0xa7	-89
161	0xc8	-56
162	0xbe	-66
163	0x26	38
164	0xdb	-37
165	0xad	-83
166	0x7f	127
167	0x47	71
168	0xd6	-42
169	0xd9	-39
170	0x7f	127
171	0xc8	-56
172	0x81	-127
173	0xf9	-7
174	0x5b	91
175	0x17	23
176	0xf8	-8
177	0xe6	-26
178	0x11	17
179	0xa8	-88
180	0x0b	11
181	0x26	38
182	0xcb	-53
183	0x1e	30
184	0xfc	-4
185	0xba	-70
186	0x81	-127
187	0x95	-107
188	0x15	21
189	0xf5	-11
190	0x7f	127
191	0xb8	-72
192	0xe0	-32
193	0xda	-38
194	0x81	-127
195	0x51	81
196	0xe5	-27
197	0xb9	-71
198	0x6d	109
199	0x0d	13
200	0xae	-82
201	0xf8	-8
202	0x61	97
203	0xbd	-67
204	0xcd	-51
205	0xdf	-33
206	0x56	86
207	0x0a	10
208	0xe3	-29
209	0x21	33
210	0x0b	11
211	0x48	72
212	0x7f	127
213	0x52	82
214	0xad	-83
215	0x26	38
216	0x81	-127
217	0x1b	27
218	0xf9	-7
219	0xca	-54
220	0x10	16
221	0xdb	-37
222	0x16	22
223	0x5b	91
224	0x31	49
225	0xd8	-40
226	0xcb	-53
227	0xfd	-3
228	0xd0	-48
229	0x1a	26
230	0x45	69
231	0x00	0
232	0xd4	-44
233	0x51	81
234	0x7d	125
235	0xf4	-12
236	0x20	32
237	0xe2	-30
238	0x37	55
239	0x3d	61
240	0xef	-17
241	0x43	67
242	0xc1	-63
243	0x4e	78
244	0x58	88
245	0x62	98
246	0xd6	-42
247	0x59	89
248	0x95	-107
249	0x2b	43
250	0x6e	110
251	0x21	33
252	0x06	6
253	0xe4	-28
254	0x23	35
255	0x7f	127

tfl.pseudo_qconst17 i1 [1, 7, 1, 32]
0	0xe9	-23
1	0x7f	127
2	0x06	6
3	0x27	39
4	0x14	20
5	0x78	120
6	0x81	-127
7	0x81	-127
8	0xcf	-49
9	0x2f	47
10	0xf5	-11
11	0x31	49
12	0x28	40
13	0x51	81
14	0x18	24
15	0x39	57
16	0xca	-54
17	0x48	72
18	0x7f	127
19	0xd6	-42
20	0xc1	-63
21	0x26	38
22	0x1d	29
23	0xeb	-21
24	0x7f	127
25	0x0e	14
26	0xf1	-15
27	0xa5	-91
28	0x81	-127
29	0xd4	-44
30	0xf7	-9
31	0xc6	-58
32	0xda	-38
33	0x60	96
34	0x31	49
35	0x46	70
36	0xd1	-47
37	0x7f	127
38	0xe7	-25
39	0x88	-120
40	0xb2	-78
41	0xeb	-21
42	0xdf	-33
43	0x12	18
44	0x1a	26
45	0x48	72
46	0xdc	-36
47	0x36	54
48	0xe9	-23
49	0x3b	59
50	0x39	57
51	0xa8	-88
52	0x02	2
53	0x66	102
54	0xec	-20
55	0x81	-127
56	0x2c	44
57	0xf5	-11
58	0x20	32
59	0xb6	-74
60	0xde	-34
61	0xfd	-3
62	0x33	51
63	0xc0	-64
64	0xd6	-42
65	0xd1	-47
66	0xea	-22
67	0x60	96
68	0xa5	-91
69	0xff	-1
70	0xd4	-44
71	0x46	70
72	0xec	-20
73	0x81	-127
74	0x37	55
75	0xed	-19
76	0x24	36
77	0x01	1
78	0xb8	-72
79	0xfc	-4
80	0x5e	94
81	0x7f	127
82	0x49	73
83	0x18	24
84	0x59	89
85	0x9c	-100
86	0xdb	-37
87	0x0c	12
88	0x5e	94
89	0x81	-127
90	0x54	84
91	0xe8	-24
92	0x04	4
93	0x7f	127
94	0xe5	-27
95	0xd2	-46
96	0xbd	-67
97	0xb7	-73
98	0x3e	62
99	0x39	57
100	0x0c	12
101	0xaa	-86
102	0x05	5
103	0x5f	95
104	0xed	-19
105	0xa8	-88
106	0x63	99
107	0xbc	-68
108	0x02	2
109	0x0b	11
110	0xc0	-64
111	0xd2	-46
112	0x2d	45
113	0x58	88
114	0xdf	-33
115	0x63	99
116	0x60	96
117	0xfa	-6
118	0xe2	-30
119	0x42	66
120	0x48	72
121	0xac	-84
122	0x12	18
123	0xf3	-13
124	0x39	57
125	0x4b	75
126	0x21	33
127	0xde	-34
128	0x99	-103
129	0xfe	-2
130	0x7f	127
131	0xc5	-59
132	0xd7	-41
133	0x95	-107
134	0x18	24
135	0xc2	-62
136	0x34	52
137	0xa4	-92
138	0xbf	-65
139	0x10	16
140	0xe3	-29
141	0xa7	-89
142	0xf8	-8
143	0xe5	-27
144	0x3e	62
145	0x2d	45
146	0xd9	-39
147	0x04	4
148	0xc6	-58
149	0x9d	-99
150	0xea	-22
151	0x6f	111
152	0x6a	106
153	0x9f	-97
154	0x81	-127
155	0xfd	-3
156	0x2e	46
157	0x43	67
158	0xe6	-26
159	0xde	-34
160	0xac	-84
161	0x01	1
162	0x46	70
163	0xbf	-65
164	0x0a	10
165	0xba	-70
166	0xd1	-47
167	0x01	1
168	0x04	4
169	0xea	-22
170	0x9b	-101
171	0x7f	127
172	0xbf	-65
173	0x81	-127
174	0x12	18
175	0xa5	-91
176	0xfb	-5
177	0x0b	11
178	0x11	17
179	0x81	-127
180	0x81	-127
181	0x9c	-100
182	0xe0	-32
183	0xf4	-12
184	0x4e	78
185	0x81	-127
186	0x86	-122
187	0x56	86
188	0x5a	90
189	0xd2	-46
190	0x6b	107
191	0xbf	-65
192	0x81	-127
193	0x17	23
194	0x38	56
195	0x81	-127
196	0x7f	127
197	0xfd	-3
198	0x96	-106
199	0xac	-84
200	0x7f	127
201	0x0c	12
202	0x7f	127
203	0x66	102
204	0x81	-127
205	0xc1	-63
206	0x7f	127
207	0x81	-127
208	0x81	-127
209	0x63	99
210	0x0b	11
211	0xc4	-60
212	0xc6	-58
213	0x7f	127
214	0x81	-127
215	0x3d	61
216	0x07	7
217	0xd4	-44
218	0xae	-82
219	0x7f	127
220	0xd9	-39
221	0x09	9
222	0x7f	127
223	0x81	-127

tfl.pseudo_qconst19 i1 [64, 1, 1, 32]
0	0xd6	-42
1	0x2a	42
2	0x96	-106
3	0x99	-103
4	0x00	0
5	0xed	-19
6	0xdf	-33
7	0xfc	-4
8	0x59	89
9	0xec	-20
10	0x08	8
11	0x2d	45
12	0x22	34
13	0xb4	-76
14	0xfc	-4
15	0x30	48
16	0x55	85
17	0xe0	-32
18	0x04	4
19	0xd3	-45
20	0x1c	28
21	0x28	40
22	0xf5	-11
23	0xfe	-2
24	0x5c	92
25	0x4f	79
26	0x35	53
27	0x51	81
28	0x81	-127
29	0x13	19
30	0x53	83
31	0xe9	-23
32	0xfe	-2
33	0xf9	-7
34	0xa4	-92
35	0x22	34
36	0xfe	-2
37	0xca	-54
38	0xca	-54
39	0x77	119
40	0x13	19
41	0x3c	60
42	0x2d	45
43	0xbb	-69
44	0xe1	-31
45	0x44	68
46	0x05	5
47	0x3e	62
48	0x2b	43
49	0xc7	-57
50	0xca	-54
51	0xf9	-7
52	0xd5	-43
53	0xc8	-56
54	0xd0	-48
55	0x31	49
56	0x81	-127
57	0x70	112
58	0xfc	-4
59	0x0d	13
60	0xed	-19
61	0x15	21
62	0x21	33
63	0x2c	44
64	0x01	1
65	0x81	-127
66	0x1f	31
67	0x2f	47
68	0x33	51
69	0xf9	-7
70	0xf5	-11
71	0xdd	-35
72	0xdd	-35
73	0xec	-20
74	0x08	8
75	0x01	1
76	0xfd	-3
77	0x33	51
78	0xd5	-43
79	0xe4	-28
80	0x0d	13
81	0x2e	46
82	0x21	33
83	0x35	53
84	0xbd	-67
85	0xe5	-27
86	0x14	20
87	0x2f	47
88	0xe7	-25
89	0xfd	-3
90	0x9a	-102
91	0x2b	43
92	0x08	8
93	0x38	56
94	0xf6	-10
95	0xee	-18
96	0x00	0
97	0xab	-85
98	0x7f	127
99	0x4f	79
100	0x0d	13
101	0xa8	-88
102	0x2d	45
103	0x2e	46
104	0x08	8
105	0x1f	31
106	0xad	-83
107	0xb5	-75
108	0xf9	-7
109	0xf2	-14
110	0xb7	-73
111	0x27	39
112	0x2c	44
113	0x39	57
114	0xd6	-42
115	0x1b	27
116	0x3a	58
117	0xb0	-80
118	0x14	20
119	0xa9	-87
120	0xf5	-11
121	0x12	18
122	0xa5	-91
123	0x64	100
124	0xb1	-79
125	0x75	117
126	0x1c	28
127	0x44	68
128	0x28	40
129	0xf6	-10
130	0x4c	76
131	0xf2	-14
132	0x0b	11
133	0x36	54
134	0x01	1
135	0xfd	-3
136	0xf6	-10
137	0x2b	43
138	0x0b	11
139	0xe6	-26
140	0x06	6
141	0x0e	14
142	0x48	72
143	0xe1	-31
144	0x0e	14
145	0x14	20
146	0x81	-127
147	0x40	64
148	0xf7	-9
149	0xfc	-4
150	0x0d	13
151	0xd7	-41
152	0xe3	-29
153	0xef	-17
154	0xdd	-35
155	0x29	41
156	0xff	-1
157	0xfb	-5
158	0x0c	12
159	0xf2	-14
160	0x38	56
161	0x17	23
162	0xe6	-26
163	0x28	40
164	0x19	25
165	0xe8	-24
166	0xf1	-15
167	0x09	9
168	0xad	-83
169	0xec	-20
170	0x7f	127
171	0x0c	12
172	0x3c	60
173	0x38	56
174	0x08	8
175	0xf5	-11
176	0xd4	-44
177	0xec	-20
178	0x15	21
179	0x0e	14
180	0xff	-1
181	0xea	-22
182	0x11	17
183	0x05	5
184	0x0b	11
185	0xf7	-9
186	0xd8	-40
187	0x02	2
188	0x09	9
189	0x2b	43
190	0xfc	-4
191	0xd7	-41
192	0x3d	61
193	0xe9	-23
194	0x46	70
195	0x34	52
196	0x3c	60
197	0xb1	-79
198	0xfc	-4
199	0x05	5
200	0x5d	93
201	0x0e	14
202	0x7f	127
203	0xfe	-2
204	0x58	88
205	0x54	84
206	0x20	32
207	0x19	25
208	0xe7	-25
209	0xdf	-33
210	0x00	0
211	0x2d	45
212	0xb9	-71
213	0xe9	-23
214	0xdf	-33
215	0x09	9
216	0xda	-38
217	0x64	100
218	0x21	33
219	0xf0	-16
220	0x16	22
221	0x3d	61
222	0x26	38
223	0x01	1
224	0x46	70
225	0xd5	-43
226	0x20	32
227	0x32	50
228	0x13	19
229	0xbf	-65
230	0xed	-19
231	0x14	20
232	0x33	51
233	0x41	65
234	0xed	-19
235	0x05	5
236	0x5b	91
237	0x3f	63
238	0x04	4
239	0x0a	10
240	0x0f	15
241	0x1a	26
242	0x5b	91
243	0xcd	-51
244	0x9e	-98
245	0x0e	14
246	0x28	40
247	0x3c	60
248	0x17	23
249	0x13	19
250	0xb3	-77
251	0x81	-127
252	0x18	24
253	0x2a	42
254	0x22	34
255	0xa6	-90

tfl.pseudo_qconst21 i1 [1, 5, 1, 32]
0	0x6a	106
1	0x76	118
2	0x23	35
3	0x0b	11
4	0xc7	-57
5	0x81	-127
6	0x4d	77
7	0x3a	58
8	0x81	-127
9	0x4b	75
10	0x61	97
11	0xf5	-11
12	0x47	71
13	0x81	-127
14	0xc2	-62
15	0x81	-127
16	0x07	7
17	0x70	112
18	0x04	4
19	0x81	-127
20	0xe9	-23
21	0x7f	127
22	0x82	-126
23	0xf3	-13
24	0x07	7
25	0x2c	44
26	0x7f	127
27	0xc3	-61
28	0x1e	30
29	0xf3	-13
30	0x0f	15
31	0x81	-127
32	0x7f	127
33	0xfa	-6
34	0x81	-127
35	0x5b	91
36	0x81	-127
37	0x9e	-98
38	0x30	48
39	0x7f	127
40	0x9b	-101
41	0x3a	58
42	0x7f	127
43	0xaf	-81
44	0x4d	77
45	0x15	21
46	0x78	120
47	0x91	-111
48	0xa8	-88
49	0x70	112
50	0x78	120
51	0x19	25
52	0xeb	-21
53	0x71	113
54	0xb5	-75
55	0x6b	107
56	0xca	-54
57	0xa3	-93
58	0x7c	124
59	0xb3	-77
60	0x04	4
61	0x03	3
62	0x30	48
63	0xb7	-73
64	0x7e	126
65	0xe1	-31
66	0xac	-84
67	0x7f	127
68	0xd8	-40
69	0x9d	-99
70	0xd4	-44
71	0x37	55
72	0xef	-17
73	0xe0	-32
74	0x29	41
75	0xd3	-45
76	0xb8	-72
77	0x7d	125
78	0x18	24
79	0xff	-1
80	0x81	-127
81	0xbd	-67
82	0x7f	127
83	0x04	4
84	0xd7	-41
85	0xb8	-72
86	0xbe	-66
87	0x81	-127
88	0xd6	-42
89	0x81	-127
90	0x56	86
91	0x93	-109
92	0x5f	95
93	0x5d	93
94	0xbd	-67
95	0x2b	43
96	0x79	121
97	0x81	-127
98	0xe6	-26
99	0xbd	-67
100	0x5d	93
101	0xf5	-11
102	0x8c	-116
103	0x4e	78
104	0xbf	-65
105	0xe2	-30
106	0xc4	-60
107	0xd1	-47
108	0x81	-127
109	0x4c	76
110	0x81	-127
111	0x04	4
112	0xe0	-32
113	0xe8	-24
114	0x48	72
115	0x09	9
116	0xa7	-89
117	0x93	-109
118	0x81	-127
119	0x38	56
120	0x9a	-102
121	0x06	6
122	0x22	34
123	0xae	-82
124	0xbe	-66
125	0x7d	125
126	0xe7	-25
127	0x50	80
128	0xf1	-15
129	0x87	-121
130	0x27	39
131	0xa2	-94
132	0x64	100
133	0xa5	-91
134	0x81	-127
135	0xf7	-9
136	0xd9	-39
137	0x7f	127
138	0xed	-19
139	0x7f	127
140	0x83	-125
141	0x09	9
142	0x83	-125
143	0x6b	107
144	0xc0	-64
145	0x7f	127
146	0xb8	-72
147	0x84	-124
148	0x81	-127
149	0xae	-82
150	0xa1	-95
151	0x08	8
152	0x81	-127
153	0x59	89
154	0x3c	60
155	0x81	-127
156	0x81	-127
157	0x7f	127
158	0x81	-127
159	0x21	33

tfl.pseudo_qconst23 i1 [32, 5, 1, 40]
0	0xf3	-13
1	0x04	4
2	0x13	19
3	0x10	16
4	0x0e	14
5	0x0a	10
6	0x1d	29
7	0x4c	76
8	0x3d	61
9	0x42	66
10	0x28	40
11	0x2c	44
12	0x2d	45
13	0x2c	44
14	0x29	41
15	0x2b	43
16	0x19	25
17	0x03	3
18	0x32	50
19	0x19	25
20	0x14	20
21	0xf2	-14
22	0xf7	-9
23	0xd4	-44
24	0xde	-34
25	0xc5	-59
26	0xe8	-24
27	0x10	16
28	0xfc	-4
29	0xe8	-24
30	0xe9	-23
31	0x0e	14
32	0x09	9
33	0xfb	-5
34	0xf8	-8
35	0xfb	-5
36	0xd9	-39
37	0xdb	-37
38	0xd6	-42
39	0xec	-20
40	0xf1	-15
41	0xe1	-31
42	0xef	-17
43	0xfb	-5
44	0x2f	47
45	0x0e	14
46	0x29	41
47	0x21	33
48	0x39	57
49	0x20	32
50	0x0c	12
51	0x14	20
52	0x23	35
53	0x18	24
54	0x11	17
55	0x21	33
56	0x01	1
57	0x04	4
58	0x0e	14
59	0xfc	-4
60	0xf5	-11
61	0xf0	-16
62	0x0c	12
63	0xcd	-51
64	0xf3	-13
65	0xd8	-40
66	0xf7	-9
67	0x05	5
68	0xf0	-16
69	0xeb	-21
70	0xfa	-6
71	0x16	22
72	0x0c	12
73	0x08	8
74	0x06	6
75	0xfd	-3
76	0xf9	-7
77	0xee	-18
78	0xe1	-31
79	0xe6	-26
80	0xf9	-7
81	0x1b	27
82	0x0e	14
83	0x05	5
84	0x19	25
85	0x0e	14
86	0x11	17
87	0xeb	-21
88	0x04	4
89	0xe4	-28
90	0xf9	-7
91	0xec	-20
92	0xfe	-2
93	0xf4	-12
94	0x01	1
95	0x12	18
96	0xfb	-5
97	0x0c	12
98	0x15	21
99	0x06	6
100	0x05	5
101	0x14	20
102	0xfa	-6
103	0xf4	-12
104	0xe2	-30
105	0xd4	-44
106	0xde	-34
107	0xdd	-35
108	0xef	-17
109	0x07	7
110	0xe9	-23
111	0x0e	14
112	0x1e	30
113	0xfd	-3
114	0xf5	-11
115	0x00	0
116	0x00	0
117	0xe2	-30
118	0xfb	-5
119	0x0b	11
120	0x11	17
121	0x01	1
122	0x12	18
123	0xe2	-30
124	0x09	9
125	0xe8	-24
126	0xd4	-44
127	0xbb	-69
128	0xd9	-39
129	0xa0	-96
130	0xb1	-79
131	0xb7	-73
132	0xe6	-26
133	0xdc	-36
134	0xdf	-33
135	0x00	0
136	0xf4	-12
137	0xdb	-37
138	0xf9	-7
139	0xf7	-9
140	0xf9	-7
141	0xf6	-10
142	0x0f	15
143	0xef	-17
144	0x01	1
145	0xca	-54
146	0xfd	-3
147	0xf3	-13
148	0xd6	-42
149	0xf2	-14
150	0xdd	-35
151	0x25	37
152	0x18	24
153	0x05	5
154	0xfa	-6
155	0x24	36
156	0xf6	-10
157	0x15	21
158	0xec	-20
159	0x1c	28
160	0x0b	11
161	0x29	41
162	0x15	21
163	0xf9	-7
164	0xfd	-3
165	0xf9	-7
166	0xa7	-89
167	0x81	-127
168	0xad	-83
169	0x8f	-113
170	0xb7	-73
171	0x93	-109
172	0xba	-70
173	0x98	-104
174	0xdb	-37
175	0xd7	-41
176	0xcc	-52
177	0xd8	-40
178	0xf6	-10
179	0xdc	-36
180	0xe4	-28
181	0x18	24
182	0x0c	12
183	0xf8	-8
184	0xf4	-12
185	0xd9	-39
186	0xe0	-32
187	0xe5	-27
188	0xcc	-52
189	0x09	9
190	0xf3	-13
191	0x11	17
192	0x19	25
193	0x18	24
194	0x14	20
195	0x30	48
196	0x04	4
197	0x1c	28
198	0x00	0
199	0x10	16
200	0x56	86
201	0x2c	44
202	0x44	68
203	0xed	-19
204	0xf9	-7
205	0x11	17
206	0x37	55
207	0x30	48
208	0x2d	45
209	0x25	37
210	0x07	7
211	0x21	33
212	0x3b	59
213	0x3f	63
214	0x10	16
215	0x24	36
216	0x2a	42
217	0xfc	-4
218	0x03	3
219	0xd2	-46
220	0x15	21
221	0xd2	-46
222	0x06	6
223	0xf7	-9
224	0x1c	28
225	0xce	-50
226	0xb7	-73
227	0xe7	-25
228	0xf3	-13
229	0x1e	30
230	0xf2	-14
231	0x20	32
232	0x3b	59
233	0x04	4
234	0xf9	-7
235	0xf4	-12
236	0x39	57
237	0x02	2
238	0x1b	27
239	0x41	65
240	0x6b	107
241	0x44	68
242	0x3f	63
243	0xec	-20
244	0xee	-18
245	0x06	6
246	0x2e	46
247	0x2c	44
248	0x1d	29
249	0x0d	13
250	0x01	1
251	0x02	2
252	0x20	32
253	0x27	39
254	0x3b	59
255	0x48	72

tfl.pseudo_qconst24 i1 [1, 14, 1, 64] scale=0.048618168 zero_point=-128
0	0x80	0.0
1	0x80	0.0
2	0x80	0.0
3	0x80	0.0
4	0x80	0.0
5	0x80	0.0
6	0x80	0.0
7	0x80	0.0
8	0x80	0.0
9	0x80	0.0
10	0x80	0.0
11	0x80	0.0
12	0x80	0.0
13	0x80	0.0
14	0x80	0.0
15	0x80	0.0
16	0x80	0.0
17	0x80	0.0
18	0x80	0.0
19	0x80	0.0
20	0x80	0.0
21	0x80	0.0
22	0x80	0.0
23	0x80	0.0
24	0x80	0.0
25	0x80	0.0
26	0x80	0.0
27	0x80	0.0
28	0x80	0.0
29	0x80	0.0
30	0x80	0.0
31	0x80	0.0
32	0x80	0.0
33	0x80	0.0
34	0x80	0.0
35	0x80	0.0
36	0x80	0.0
37	0x80	0.0
38	0x80	0.0
39	0x80	0.0
40	0x80	0.0
41	0x80	0.0
42	0x80	0.0
43	0x80	0.0
44	0x80	0.0
45	0x80	0.0
46	0x80	0.0
47	0x80	0.0
48	0x80	0.0
49	0x80	0.0
50	0x80	0.0
51	0x80	0.0
52	0x80	0.0
53	0x80	0.0
54	0x80	0.0
55	0x80	0.0
56	0x80	0.0
57	0x80	0.0
58	0x80	0.0
59	0x80	0.0
60	0x80	0.0
61	0x80	0.0
62	0x80	0.0
63	0x80	0.0
64	0x80	0.0
65	0x80	0.0
66	0x80	0.0
67	0x80	0.0
68	0x80	0.0
69	0x80	0.0
70	0x80	0.0
71	0x80	0.0
72	0x80	0.0
73	0x80	0.0
74	0x80	0.0
75	0x80	0.0
76	0x80	0.0
77	0x80	0.0
78	0x80	0.0
79	0x80	0.0
80	0x80	0.0
81	0x80	0.0
82	0x80	0.0
83	0x80	0.0
84	0x80	0.0
85	0x80	0.0
86	0x80	0.0
87	0x80	0.0
88	0x80	0.0
89	0x80	0.0
90	0x80	0.0
91	0x80	0.0
92	0x80	0.0
93	0x80	0.0
94	0x80	0.0
95	0x80	0.0
96	0x80	0.0
97	0x80	0.0
98	0x80	0.0
99	0x80	0.0
100	0x80	0.0
101	0x80	0.0
102	0x80	0.0
103	0x80	0.0
104	0x80	0.0
105	0x80	0.0
106	0x80	0.0
107	0x80	0.0
108	0x80	0.0
109	0x80	0.0
110	0x80	0.0
111	0x80	0.0
112	0x80	0.0
113	0x80	0.0
114	0x80	0.0
115	0x80	0.0
116	0x80	0.0
117	0x80	0.0
118	0x80	0.0
119	0x80	0.0
120	0x80	0.0
121	0x80	0.0
122	0x80	0.0
123	0x80	0.0
124	0x80	0.0
125	0x80	0.0
126	0x80	0.0
127	0x80	0.0
128	0x80	0.0
129	0x80	0.0
130	0x80	0.0
131	0x80	0.0
132	0x80	0.0
133	0x80	0.0
134	0x80	0.0
135	0x80	0.0
136	0x80	0.0
137	0x80	0.0
138	0x80	0.0
139	0x80	0.0
140	0x80	0.0
141	0x80	0.0
142	0x80	0.0
143	0x80	0.0
144	0x80	0.0
145	0x80	0.0
146	0x80	0.0
147	0x80	0.0
148	0x80	0.0
149	0x80	0.0
150	0x80	0.0
151	0x80	0.0
152	0x80	0.0
153	0x80	0.0
154	0x80	0.0
155	0x80	0.0
156	0x80	0.0
157	0x80	0.0
158	0x80	0.0
159	0x80	0.0
160	0x80	0.0
161	0x80	0.0
162	0x80	0.0
163	0x80	0.0
164	0x80	0.0
165	0x80	0.0
166	0x80	0.0
167	0x80	0.0
168	0x80	0.0
169	0x80	0.0
170	0x80	0.0
171	0x80	0.0
172	0x80	0.0
173	0x80	0.0
174	0x80	0.0
175	0x80	0.0
176	0x80	0.0
177	0x80	0.0
178	0x80	0.0
179	0x80	0.0
180	0x80	0.0
181	0x80	0.0
182	0x80	0.0
183	0x80	0.0
184	0x80	0.0
185	0x80	0.0
186	0x80	0.0
187	0x80	0.0
188	0x80	0.0
189	0x80	0.0
190	0x80	0.0
191	0x80	0.0
192	0x80	0.0
193	0x80	0.0
194	0x80	0.0
195	0x80	0.0
196	0x80	0.0
197	0x80	0.0
198	0x80	0.0
199	0x80	0.0
200	0x80	0.0
201	0x80	0.0
202	0x80	0.0
203	0x80	0.0
204	0x80	0.0
205	0x80	0.0
206	0x80	0.0
207	0x80	0.0
208	0x80	0.0
209	0x80	0.0
210	0x80	0.0
211	0x80	0.0
212	0x80	0.0
213	0x80	0.0
214	0x80	0.0
215	0x80	0.0
216	0x80	0.0
217	0x80	0.0
218	0x80	0.0
219	0x80	0.0
220	0x80	0.0
221	0x80	0.0
222	0x80	0.0
223	0x80	0.0
224	0x80	0.0
225	0x80	0.0
226	0x80	0.0
227	0x80	0.0
228	0x80	0.0
229	0x80	0.0
230	0x80	0.0
231	0x80	0.0
232	0x80	0.0
233	0x80	0.0
234	0x80	0.0
235	0x80	0.0
236	0x80	0.0
237	0x80	0.0
238	0x80	0.0
239	0x80	0.0
240	0x80	0.0
241	0x80	0.0
242	0x80	0.0
243	0x80	0.0
244	0x80	0.0
245	0x80	0.0
246	0x80	0.0
247	0x80	0.0
248	0x80	0.0
249	0x80	0.0
250	0x80	0.0
251	0x80	0.0
252	0x80	0.0
253	0x80	0.0
254	0x80	0.0
255	0x80	0.0

tfl.pseudo_qconst25 i1 [1, 10, 1, 64] scale=0.042538043 zero_point=-128
0	0x80	0.0
1	0x80	0.0
2	0x80	0.0
3	0x80	0.0
4	0x80	0.0
5	0x80	0.0
6	0x80	0.0
7	0x80	0.0
8	0x80	0.0
9	0x80	0.0
10	0x80	0.0
11	0x80	0.0
12	0x80	0.0
13	0x80	0.0
14	0x80	0.0
15	0x80	0.0
16	0x80	0.0
17	0x80	0.0
18	0x80	0.0
19	0x80	0.0
20	0x80	0.0
21	0x80	0.0
22	0x80	0.0
23	0x80	0.0
24	0x80	0.0
25	0x80	0.0
26	0x80	0.0
27	0x80	0.0
28	0x80	0.0
29	0x80	0.0
30	0x80	0.0
31	0x80	0.0
32	0x80	0.0
33	0x80	0.0
34	0x80	0.0
35	0x80	0.0
36	0x80	0.0
37	0x80	0.0
38	0x80	0.0
39	0x80	0.0
40	0x80	0.0
41	0x80	0.0
42	0x80	0.0
43	0x80	0.0
44	0x80	0.0
45	0x80	0.0
46	0x80	0.0
47	0x80	0.0
48	0x80	0.0
49	0x80	0.0
50	0x80	0.0
51	0x80	0.0
52	0x80	0.0
53	0x80	0.0
54	0x80	0.0
55	0x80	0.0
56	0x80	0.0
57	0x80	0.0
58	0x80	0.0
59	0x80	0.0
60	0x80	0.0
61	0x80	0.0
62	0x80	0.0
63	0x80	0.0
64	0x80	0.0
65	0x80	0.0
66	0x80	0.0
67	0x80	0.0
68	0x80	0.0
69	0x80	0.0
70	0x80	0.0
71	0x80	0.0
72	0x80	0.0
73	0x80	0.0
74	0x80	0.0
75	0x80	0.0
76	0x80	0.0
77	0x80	0.0
78	0x80	0.0
79	0x80	0.0
80	0x80	0.0
81	0x80	0.0
82	0x80	0.0
83	0x80	0.0
84	0x80	0.0
85	0x80	0.0
86	0x80	0.0
87	0x80	0.0
88	0x80	0.0
89	0x80	0.0
90	0x80	0.0
91	0x80	0.0
92	0x80	0.0
93	0x80	0.0
94	0x80	0.0
95	0x80	0.0
96	0x80	0.0
97	0x80	0.0
98	0x80	0.0
99	0x80	0.0
100	0x80	0.0
101	0x80	0.0
102	0x80	0.0
103	0x80	0.0
104	0x80	0.0
105	0x80	0.0
106	0x80	0.0
107	0x80	0.0
108	0x80	0.0
109	0x80	0.0
110	0x80	0.0
111	0x80	0.0
112	0x80	0.0
113	0x80	0.0
114	0x80	0.0
115	0x80	0.0
116	0x80	0.0
117	0x80	0.0
118	0x80	0.0
119	0x80	0.0
120	0x80	0.0
121	0x80	0.0
122	0x80	0.0
123	0x80	0.0
124	0x80	0.0
125	0x80	0.0
126	0x80	0.0
127	0x80	0.0
128	0x80	0.0
129	0x80	0.0
130	0x80	0.0
131	0x80	0.0
132	0x80	0.0
133	0x80	0.0
134	0x80	0.0
135	0x80	0.0
136	0x80	0.0
137	0x80	0.0
138	0x80	0.0
139	0x80	0.0
140	0x80	0.0
141	0x80	0.0
142	0x80	0.0
143	0x80	0.0
144	0x80	0.0
145	0x80	0.0
146	0x80	0.0
147	0x80	0.0
148	0x80	0.0
149	0x80	0.0
150	0x80	0.0
151	0x80	0.0
152	0x80	0.0
153	0x80	0.0
154	0x80	0.0
155	0x80	0.0
156	0x80	0.0
157	0x80	0.0
158	0x80	0.0
159	0x80	0.0
160	0x80	0.0
161	0x80	0.0
162	0x80	0.0
163	0x80	0.0
164	0x80	0.0
165	0x80	0.0
166	0x80	0.0
167	0x80	0.0
168	0x80	0.0
169	0x80	0.0
170	0x80	0.0
171	0x80	0.0
172	0x80	0.0
173	0x80	0.0
174	0x80	0.0
175	0x80	0.0
176	0x80	0.0
177	0x80	0.0
178	0x80	0.0
179	0x80	0.0
180	0x80	0.0
181	0x80	0.0
182	0x80	0.0
183	0x80	0.0
184	0x80	0.0
185	0x80	0.0
186	0x80	0.0
187	0x80	0.0
188	0x80	0.0
189	0x80	0.0
190	0x80	0.0
191	0x80	0.0
192	0x80	0.0
193	0x80	0.0
194	0x80	0.0
195	0x80	0.0
196	0x80	0.0
197	0x80	0.0
198	0x80	0.0
199	0x80	0.0
200	0x80	0.0
201	0x80	0.0
202	0x80	0.0
203	0x80	0.0
204	0x80	0.0
205	0x80	0.0
206	0x80	0.0
207	0x80	0.0
208	0x80	0.0
209	0x80	0.0
210	0x80	0.0
211	0x80	0.0
212	0x80	0.0
213	0x80	0.0
214	0x80	0.0
215	0x80	0.0
216	0x80	0.0
217	0x80	0.0
218	0x80	0.0
219	0x80	0.0
220	0x80	0.0
221	0x80	0.0
222	0x80	0.0
223	0x80	0.0
224	0x80	0.0
225	0x80	0.0
226	0x80	0.0
227	0x80	0.0
228	0x80	0.0
229	0x80	0.0
230	0x80	0.0
231	0x80	0.0
232	0x80	0.0
233	0x80	0.0
234	0x80	0.0
235	0x80	0.0
236	0x80	0.0
237	0x80	0.0
238	0x80	0.0
239	0x80	0.0
240	0x80	0.0
241	0x80	0.0
242	0x80	0.0
243	0x80	0.0
244	0x80	0.0
245	0x80	0.0
246	0x80	0.0
247	0x80	0.0
248	0x80	0.0
249	0x80	0.0
250	0x80	0.0
251	0x80	0.0
252	0x80	0.0
253	0x80	0.0
254	0x80	0.0
255	0x80	0.0

tfl.pseudo_qconst26 i1 [1, 4, 1, 32] scale=1.3094579 zero_point=-128
0	0x80	0.0
1	0x80	0.0
2	0x80	0.0
3	0x80	0.0
4	0x80	0.0
5	0x80	0.0
6	0x80	0.0
7	0x80	0.0
8	0x80	0.0
9	0x80	0.0
10	0x80	0.0
11	0x80	0.0
12	0x80	0.0
13	0x80	0.0
14	0x80	0.0
15	0x80	0.0
16	0x80	0.0
17	0x80	0.0
18	0x80	0.0
19	0x80	0.0
20	0x80	0.0
21	0x80	0.0
22	0x80	0.0
23	0x80	0.0
24	0x80	0.0
25	0x80	0.0
26	0x80	0.0
27	0x80	0.0
28	0x80	0.0
29	0x80	0.0
30	0x80	0.0
31	0x80	0.0
32	0x80	0.0
33	0x80	0.0
34	0x80	0.0
35	0x80	0.0
36	0x80	0.0
37	0x80	0.0
38	0x80	0.0
39	0x80	0.0
40	0x80	0.0
41	0x80	0.0
42	0x80	0.0
43	0x80	0.0
44	0x80	0.0
45	0x80	0.0
46	0x80	0.0
47	0x80	0.0
48	0x80	0.0
49	0x80	0.0
50	0x80	0.0
51	0x80	0.0
52	0x80	0.0
53	0x80	0.0
54	0x80	0.0
55	0x80	0.0
56	0x80	0.0
57	0x80	0.0
58	0x80	0.0
59	0x80	0.0
60	0x80	0.0
61	0x80	0.0
62	0x80	0.0
63	0x80	0.0
64	0x80	0.0
65	0x80	0.0
66	0x80	0.0
67	0x80	0.0
68	0x80	0.0
69	0x80	0.0
70	0x80	0.0
71	0x80	0.0
72	0x80	0.0
73	0x80	0.0
74	0x80	0.0
75	0x80	0.0
76	0x80	0.0
77	0x80	0.0
78	0x80	0.0
79	0x80	0.0
80	0x80	0.0
81	0x80	0.0
82	0x80	0.0
83	0x80	0.0
84	0x80	0.0
85	0x80	0.0
86	0x80	0.0
87	0x80	0.0
88	0x80	0.0
89	0x80	0.0
90	0x80	0.0
91	0x80	0.0
92	0x80	0.0
93	0x80	0.0
94	0x80	0.0
95	0x80	0.0
96	0x80	0.0
97	0x80	0.0
98	0x80	0.0
99	0x80	0.0
100	0x80	0.0
101	0x80	0.0
102	0x80	0.0
103	0x80	0.0
104	0x80	0.0
105	0x80	0.0
106	0x80	0.0
107	0x80	0.0
108	0x80	0.0
109	0x80	0.0
110	0x80	0.0
111	0x80	0.0
112	0x80	0.0
113	0x80	0.0
114	0x80	0.0
115	0x80	0.0
116	0x80	0.0
117	0x80	0.0
118	0x80	0.0
119	0x80	0.0
120	0x80	0.0
121	0x80	0.0
122	0x80	0.0
123	0x80	0.0
124	0x80	0.0
125	0x80	0.0
126	0x80	0.0
127	0x80	0.0

tfl.pseudo_qconst27 i1 [1, 3, 1, 40] scale=0.101960786 zero_point=-128
0	0x80	0.0
1	0x80	0.0
2	0x80	0.0
3	0x80	0.0
4	0x80	0.0
5	0x80	0.0
6	0x80	0.0
7	0x80	0.0
8	0x80	0.0
9	0x80	0.0
10	0x80	0.0
11	0x80	0.0
12	0x80	0.0
13	0x80	0.0
14	0x80	0.0
15	0x80	0.0
16	0x80	0.0
17	0x80	0.0
18	0x80	0.0
19	0x80	0.0
20	0x80	0.0
21	0x80	0.0
22	0x80	0.0
23	0x80	0.0
24	0x80	0.0
25	0x80	0.0
26	0x80	0.0
27	0x80	0.0
28	0x80	0.0
29	0x80	0.0
30	0x80	0.0
31	0x80	0.0
32	0x80	0.0
33	0x80	0.0
34	0x80	0.0
35	0x80	0.0
36	0x80	0.0
37	0x80	0.0
38	0x80	0.0
39	0x80	0.0
40	0x80	0.0
41	0x80	0.0
42	0x80	0.0
43	0x80	0.0
44	0x80	0.0
45	0x80	0.0
46	0x80	0.0
47	0x80	0.0
48	0x80	0.0
49	0x80	0.0
50	0x80	0.0
51	0x80	0.0
52	0x80	0.0
53	0x80	0.0
54	0x80	0.0
55	0x80	0.0
56	0x80	0.0
57	0x80	0.0
58	0x80	0.0
59	0x80	0.0
60	0x80	0.0
61	0x80	0.0
62	0x80	0.0
63	0x80	0.0
64	0x80	0.0
65	0x80	0.0
66	0x80	0.0
67	0x80	0.0
68	0x80	0.0
69	0x80	0.0
70	0x80	0.0
71	0x80	0.0
72	0x80	0.0
73	0x80	0.0
74	0x80	0.0
75	0x80	0.0
76	0x80	0.0
77	0x80	0.0
78	0x80	0.0
79	0x80	0.0
80	0x80	0.0
81	0x80	0.0
82	0x80	0.0
83	0x80	0.0
84	0x80	0.0
85	0x80	0.0
86	0x80	0.0
87	0x80	0.0
88	0x80	0.0
89	0x80	0.0
90	0x80	0.0
91	0x80	0.0
92	0x80	0.0
93	0x80	0.0
94	0x80	0.0
95	0x80	0.0
96	0x80	0.0
97	0x80	0.0
98	0x80	0.0
99	0x80	0.0
100	0x80	0.0
101	0x80	0.0
102	0x80	0.0
103	0x80	0.0
104	0x80	0.0
105	0x80	0.0
106	0x80	0.0
107	0x80	0.0
108	0x80	0.0
109	0x80	0.0
110	0x80	0.0
111	0x80	0.0
112	0x80	0.0
113	0x80	0.0
114	0x80	0.0
115	0x80	0.0
116	0x80	0.0
117	0x80	0.0
118	0x80	0.0
119	0x80	0.0
