tie_knee_mung__key.tflite (tflite, 63536 bytes, 18 tensors)

tfl.pseudo_qconst1 i1 [1, 2368] scale=0.0087520145 zero_point=0
-0.31507254 -0.15753627 -0.52512085 -0.34132856 -0.078768134 -0.40259266 -0.41134468 -0.27131245
-0.11377619 0.0 0.38508862 0.14003223 0.21004835 0.0612641 -0.1225282 -0.0612641
0.0 0.49886483 -0.32382452 -0.35008058 -0.20129633 -0.7964333 -0.105024174 -0.20129633
0.087520145 0.18379231 -0.17504029 -0.30632052 -0.043760072 -0.16628827 -0.23630439 0.21880037
-0.078768134 -0.2975685 0.14003223 -0.26256043 -0.21004835 -0.22755238 -0.13128021 0.043760072
-0.19254431 -0.14878425 0.31507254 -0.035008058 -0.22755238 -0.1225282 0.26256043 -0.035008058
-0.14003223 -0.2538084 0.043760072 -0.2450564 0.21004835 -0.2975685 -0.16628827 0.11377619
-0.18379231 -0.46385676 -0.34132856 -0.21880037 -0.21880037 -0.21004835 -0.6651531 -0.30632052
-0.14878425 -0.14003223 -0.22755238 -0.16628827 -0.035008058 -0.21880037 -0.2538084 -0.26256043
-0.043760072 -0.017504029 0.33257654 0.026256043 0.13128021 0.052512087 0.0 -0.052512087
0.017504029 0.37633663 -0.15753627 -0.20129633 -0.13128021 -0.55137694 -0.23630439 -0.017504029
0.078768134 0.1225282 -0.17504029 -0.070016116 -0.017504029 -0.0612641 0.0 0.21004835
0.070016116 -0.16628827 0.078768134 -0.27131245 -0.14003223 -0.087520145 -0.105024174 0.0
-0.0612641 -0.070016116 0.21004835 0.070016116 -0.14003223 0.0087520145 0.14878425 0.017504029
-0.087520145 -0.078768134 -0.0087520145 -0.22755238 0.18379231 -0.15753627 -0.0087520145 0.087520145
-0.052512087 -0.28006446 -0.13128021 -0.11377619 -0.13128021 -0.20129633 -0.33257654 -0.23630439
-0.070016116 -0.2538084 -0.17504029 -0.0087520145 0.052512087 -0.20129633 -0.16628827 -0.21880037
-0.035008058 0.11377619 0.32382452 -0.017504029 -0.0087520145 0.078768134 0.0612641 0.043760072
0.026256043 0.36758462 -0.026256043 -0.17504029 -0.15753627 -0.3588326 -0.21880037 -0.0087520145
0.087520145 0.070016116 -0.28006446 -0.0087520145 0.0612641 -0.11377619 0.087520145 0.2538084
-0.026256043 -0.0612641 0.0 -0.2450564 0.035008058 -0.043760072 0.0087520145 -0.19254431
-0.0612641 -0.11377619 0.14878425 0.20129633 -0.15753627 0.043760072 0.052512087 -0.14003223
0.0087520145 -0.0612641 -0.17504029 -0.13128021 0.087520145 -0.14878425 0.11377619 0.096272156
0.017504029 -0.078768134 -0.026256043 -0.13128021 -0.087520145 -0.4200967 -0.096272156 -0.23630439
-0.087520145 -0.0612641 -0.13128021 0.043760072 0.070016116 -0.078768134 -0.14003223 -0.13128021
-0.035008058 0.11377619 0.30632052 -0.0612641 -0.16628827 0.017504029 0.096272156 0.0
0.017504029 0.28006446 0.017504029 -0.078768134 -0.078768134 -0.21004835 -0.105024174 0.026256043
0.035008058 0.0087520145 -0.28006446 -0.11377619 -0.0087520145 -0.23630439 0.087520145 0.22755238
-0.035008058 -0.096272156 0.0612641 -0.32382452 0.017504029 -0.017504029 0.043760072 -0.16628827
-0.096272156 -0.070016116 0.026256043 0.078768134 -0.14003223 0.105024174 0.105024174 -0.052512087
-0.026256043 -0.043760072 -0.30632052 0.078768134 0.1225282 -0.078768134 0.11377619 0.035008058
-0.017504029 0.017504029 -0.0087520145 -0.096272156 0.043760072 -0.55137694 -0.026256043 -0.19254431
00000000: dcee c4d9 f7d2 d1e1 f300 2c10 1807 f2f9
00000010: 0039 dbd8 e9a5 f4e9 0a15 ecdd fbed e519
00000020: f7de 10e2 e8e6 f105 eaef 24fc e6f2 1efc
00000030: f0e3 05e4 18de ed0d ebcb d9e7 e7e8 b4dd
00000040: eff0 e6ed fce7 e3e2 fbfe 2603 0f06 00fa
00000050: 022b eee9 f1c1 e5fe 090e ecf8 fef9 0018
00000060: 08ed 09e1 f0f6 f400 f9f8 1808 f001 1102
00000070: f6f7 ffe6 15ee ff0a fae0 f1f3 f1e9 dae5
00000080: f8e3 ecff 06e9 ede7 fc0d 25fe ff09 0705
00000090: 032a fdec eed7 e7ff 0a08 e0ff 07f3 0a1d
000000a0: fdf9 00e4 04fb 01ea f9f3 1117 ee05 06f0
000000b0: 01f9 ecf1 0aef 0d0b 02f7 fdf1 f6d0 f5e5
000000c0: f6f9 f105 08f7 f0f1 fc0d 23f9 ed02 0b00
000000d0: 0220 02f7 f7e8 f403 0401 e0f3 ffe5 0a1a
000000e0: fcf5 07db 02fe 05ed f5f8 0309 f00c 0cfa
000000f0: fdfb dd09 0ef7 0d04 fe02 fff5 05c1 fdea

tfl.pseudo_qconst3 i1 [64, 1, 1, 64]
-26 79 -14 57 23 -28 127 -67
-41 -32 5 -20 -7 3 53 46
33 22 -17 78 20 27 -40 -38
-28 -8 -9 -32 72 17 38 -53
8 33 -37 37 -9 -3 24 26
-30 -21 36 34 37 -37 13 -20
-25 59 -4 4 12 10 4 12
-18 -41 40 -4 39 37 -34 26
16 35 19 69 61 75 19 -72
5 41 -29 7 5 16 -8 -58
-27 -79 62 39 -8 14 -16 31
-3 -28 -26 -6 -37 19 54 -110
-61 -111 16 35 -127 -49 -10 72
-52 24 59 -37 -32 -51 -35 -11
44 -54 48 -5 78 -45 -8 -14
-16 -16 -75 68 -8 11 9 -1
28 22 -36 -31 6 119 118 -61
16 22 -6 7 38 1 37 30
18 -18 -36 23 2 -79 10 -26
127 71 -14 -14 46 -11 26 14
-33 92 39 -24 62 51 -36 -13
-67 -101 39 32 -52 -21 40 -5
-67 81 6 -108 50 -48 1 13
-100 -10 50 -77 0 26 -38 -28
-49 -127 -12 -13 -32 71 -47 15
-52 -28 -36 5 44 4 21 -16
-44 17 -5 1 20 -11 5 43
13 -42 -27 -25 22 24 -56 67
63 51 -15 33 24 4 -17 30
39 19 8 0 -63 -6 -29 1
33 48 30 -29 -76 39 -46 10
6 0 -33 -25 16 -33 56 12
00000000: e64f f239 17e4 7fbd d7e0 05ec f903 352e
00000010: 2116 ef4e 141b d8da e4f8 f7e0 4811 26cb
00000020: 0821 db25 f7fd 181a e2eb 2422 25db 0dec
00000030: e73b fc04 0c0a 040c eed7 28fc 2725 de1a
00000040: 1023 1345 3d4b 13b8 0529 e307 0510 f8c6
00000050: e5b1 3e27 f80e f01f fde4 e6fa db13 3692
00000060: c391 1023 81cf f648 cc18 3bdb e0cd ddf5
00000070: 2cca 30fb 4ed3 f8f2 f0f0 b544 f80b 09ff
00000080: 1c16 dce1 0677 76c3 1016 fa07 2601 251e
00000090: 12ee dc17 02b1 0ae6 7f47 f2f2 2ef5 1a0e
000000a0: df5c 27e8 3e33 dcf3 bd9b 2720 cceb 28fb
000000b0: bd51 0694 32d0 010d 9cf6 32b3 001a dae4
000000c0: cf81 f4f3 e047 d10f cce4 dc05 2c04 15f0
000000d0: d411 fb01 14f5 052b 0dd6 e5e7 1618 c843
000000e0: 3f33 f121 1804 ef1e 2713 0800 c1fa e301
000000f0: 2130 1ee3 b427 d20a 0600 dfe7 10df 380c

tfl.pseudo_qconst5 i1 [1, 23, 1, 64]
127 11 -89 6 127 127 -59 15
-15 -9 -127 14 -127 -70 -127 -127
82 49 -43 72 81 -69 -16 127
127 63 -122 127 127 72 10 -12
-43 12 127 38 3 -127 -127 -75
-81 -23 127 -125 -127 26 -55 117
-42 8 113 -122 36 -48 30 32
30 127 -45 127 44 28 -79 21
122 14 -64 -2 90 117 -44 4
-19 -46 -80 6 -98 -57 -126 -104
69 47 -55 62 69 0 0 79
71 94 -47 95 97 73 -28 -14
-26 20 102 -15 10 -114 -94 -89
-55 -4 108 -127 -93 24 -36 118
-44 20 111 -127 34 -43 -60 64
54 99 -26 76 84 35 20 -6
127 8 -30 3 118 113 -48 2
-11 -54 -63 11 -81 -42 -99 -84
67 58 -71 80 44 14 -54 54
27 60 -33 110 68 65 -23 -16
-19 21 65 -63 13 -108 -71 -41
-11 20 81 -122 -62 -3 -26 56
-77 2 95 -105 15 -6 -110 66
51 71 -21 27 104 26 19 7
109 -1 -22 6 98 96 -47 -4
-11 -62 -54 -2 -67 -55 -96 -80
39 32 -74 80 42 42 -85 34
25 55 -42 96 66 70 3 -7
-27 15 51 -7 27 -98 -69 -12
28 28 74 -123 -16 20 -52 35
-70 2 76 -73 0 -30 -91 36
61 65 -51 44 105 23 -23 33
00000000: 7f0b a706 7f7f c50f f1f7 810e 81ba 8181
00000010: 5231 d548 51bb f07f 7f3f 867f 7f48 0af4
00000020: d50c 7f26 0381 81b5 afe9 7f83 811a c975
00000030: d608 7186 24d0 1e20 1e7f d37f 2c1c b115
00000040: 7a0e c0fe 5a75 d404 edd2 b006 9ec7 8298
00000050: 452f c93e 4500 004f 475e d15f 6149 e4f2
00000060: e614 66f1 0a8e a2a7 c9fc 6c81 a318 dc76
00000070: d414 6f81 22d5 c440 3663 e64c 5423 14fa
00000080: 7f08 e203 7671 d002 f5ca c10b afd6 9dac
00000090: 433a b950 2c0e ca36 1b3c df6e 4441 e9f0
000000a0: ed15 41c1 0d94 b9d7 f514 5186 c2fd e638
000000b0: b302 5f97 0ffa 9242 3347 eb1b 681a 1307
000000c0: 6dff ea06 6260 d1fc f5c2 cafe bdc9 a0b0
000000d0: 2720 b650 2a2a ab22 1937 d660 4246 03f9
000000e0: e50f 33f9 1b9e bbf4 1c1c 4a85 f014 cc23
000000f0: ba02 4cb7 00e2 a524 3d41 cd2c 6917 e921

tfl.pseudo_qconst7 i1 [64, 1, 1, 64]
13 93 10 -6 0 -18 -9 -17
21 -4 -117 90 34 -51 -14 95
5 29 -23 -50 23 1 78 29
46 15 -28 -32 64 -26 -17 18
-68 -95 -30 1 47 -52 -5 43
-14 -81 45 -44 127 61 -27 -34
1 -48 -11 -86 -48 -14 16 3
25 6 -3 23 -38 -31 -22 -22
69 -25 92 79 -40 -16 42 -17
62 -16 19 58 45 12 33 40
-7 -8 -33 -4 -8 -67 -28 10
-81 15 -17 -63 63 74 28 36
-8 5 21 49 27 -65 29 -35
7 13 37 73 31 71 34 -13
4 -5 10 -26 32 44 -27 -127
113 59 22 12 -36 40 14 26
34 12 104 127 37 -4 -48 -22
-21 13 -21 18 61 43 27 -47
-69 53 15 -10 -5 24 21 -55
-48 -1 -4 -35 -60 106 58 50
-19 41 54 24 -80 -26 2 -39
-63 54 -9 2 28 31 0 -54
43 17 53 80 -6 95 3 -26
-77 -32 -24 9 118 -17 -28 8
41 25 -58 -100 89 -7 -55 6
-9 -46 -69 11 -48 11 -65 21
40 34 -39 -44 83 41 95 -36
62 -16 24 116 10 20 -99 -122
-41 16 27 -6 9 -2 30 45
24 -61 6 -61 -61 -14 -6 -42
-91 15 -16 -79 -31 8 127 117
-59 -5 -55 -54 -40 -26 -47 -65
00000000: 0d5d 0afa 00ee f7ef 15fc 8b5a 22cd f25f
00000010: 051d e9ce 1701 4e1d 2e0f e4e0 40e6 ef12
00000020: bca1 e201 2fcc fb2b f2af 2dd4 7f3d e5de
00000030: 01d0 f5aa d0f2 1003 1906 fd17 dae1 eaea
00000040: 45e7 5c4f d8f0 2aef 3ef0 133a 2d0c 2128
00000050: f9f8 dffc f8bd e40a af0f efc1 3f4a 1c24
00000060: f805 1531 1bbf 1ddd 070d 2549 1f47 22f3
00000070: 04fb 0ae6 202c e581 713b 160c dc28 0e1a
00000080: 220c 687f 25fc d0ea eb0d eb12 3d2b 1bd1
00000090: bb35 0ff6 fb18 15c9 d0ff fcdd c46a 3a32
000000a0: ed29 3618 b0e6 02d9 c136 f702 1c1f 00ca
000000b0: 2b11 3550 fa5f 03e6 b3e0 e809 76ef e408
000000c0: 2919 c69c 59f9 c906 f7d2 bb0b d00b bf15
000000d0: 2822 d9d4 5329 5fdc 3ef0 1874 0a14 9d86
000000e0: d710 1bfa 09fe 1e2d 18c3 06c3 c3f2 fad6
000000f0: a50f f0b1 e108 7f75 c5fb c9ca d8e6 d1bf

tfl.pseudo_qconst9 i1 [1, 15, 1, 32]
37 -121 -127 -127 127 -30 -36 -58
-24 33 -105 90 121 127 -5 -109
127 -100 -127 -32 91 27 48 -50
-30 -4 -127 -127 -127 67 -127 102
45 -88 -90 -99 84 36 -34 -96
-33 27 -127 75 108 80 52 -67
125 -99 -71 -40 45 -7 41 -24
-22 20 -89 -80 -112 17 -80 68
14 -73 -62 -120 58 32 -46 -96
5 15 -124 36 127 53 15 -127
105 -62 -63 5 56 7 26 20
20 17 -97 -72 -65 -3 -59 47
-21 -96 -15 -70 0 58 -113 -111
-61 22 -48 15 81 25 -6 -100
84 -12 -12 -43 13 -7 7 11
16 12 -47 -62 12 -13 -45 4
2 -69 -40 -95 -12 127 -58 -109
-44 -1 -27 -1 102 43 -2 -24
75 14 -36 60 -7 -17 27 37
27 35 -39 -35 25 -27 -58 -50
-6 -18 -26 -76 45 80 39 -126
-45 -20 52 -22 123 11 23 24
91 13 -5 99 7 -23 1 12
25 27 -7 -48 98 -59 -30 -40
-10 -37 -17 -27 20 92 10 -127
-5 -59 60 31 108 -10 -5 45
38 100 -34 120 27 -31 2 22
7 -21 2 -48 41 -87 -12 -2
-1 23 -18 -23 32 76 63 -36
53 -64 101 -30 54 -7 8 75
64 86 -32 88 42 -65 3 21
6 -15 4 -52 48 -102 -24 30
00000000: 2587 8181 7fe2 dcc6 e821 975a 797f fb93
00000010: 7f9c 81e0 5b1b 30ce e2fc 8181 8143 8166
00000020: 2da8 a69d 5424 dea0 df1b 814b 6c50 34bd
00000030: 7d9d b9d8 2df9 29e8 ea14 a7b0 9011 b044
00000040: 0eb7 c288 3a20 d2a0 050f 8424 7f35 0f81
00000050: 69c2 c105 3807 1a14 1411 9fb8 bffd c52f
00000060: eba0 f1ba 003a 8f91 c316 d00f 5119 fa9c
00000070: 54f4 f4d5 0df9 070b 100c d1c2 0cf3 d304
00000080: 02bb d8a1 f47f c693 d4ff e5ff 662b fee8
00000090: 4b0e dc3c f9ef 1b25 1b23 d9dd 19e5 c6ce
000000a0: faee e6b4 2d50 2782 d3ec 34ea 7b0b 1718
000000b0: 5b0d fb63 07e9 010c 191b f9d0 62c5 e2d8
000000c0: f6db efe5 145c 0a81 fbc5 3c1f 6cf6 fb2d
000000d0: 2664 de78 1be1 0216 07eb 02d0 29a9 f4fe
000000e0: ff17 eee9 204c 3fdc 35c0 65e2 36f9 084b
000000f0: 4056 e058 2abf 0315 06f1 04cc 309a e81e

tfl.pseudo_qconst11 i1 [1, 9, 1, 32]
-10 33 -42 42 -30 36 -43 68
82 63 56 -56 30 -62 11 -32
46 -51 -83 -6 2 28 -111 -45
1 59 -18 -4 113 31 -10 -127
-17 4 -33 9 -74 16 -15 38
9 54 107 -65 -4 -95 44 -57
127 -45 -38 -5 41 -19 -102 -36
-10 -79 37 28 105 -25 -84 -66
-24 45 -96 20 -56 86 -33 57
5 9 119 -98 -25 -127 -26 15
44 -71 -16 12 49 99 -22 77
-6 -108 127 24 127 12 -60 -64
-73 35 -127 -42 -127 55 61 67
-29 96 116 -57 -28 -83 3 127
-28 -36 -127 4 65 56 27 127
-21 -15 29 -9 9 -38 -88 -19
-75 -17 -100 -69 -102 31 61 -52
-53 83 -4 19 -27 -104 3 119
18 -67 29 13 58 127 50 20
8 114 -30 -32 -77 -44 -120 30
-80 -70 -67 -83 -60 27 105 -82
-91 119 -6 71 37 -57 44 99
14 -47 -22 -3 -9 94 26 78
-4 -32 -4 -37 -124 -112 -76 76
-87 -58 -75 -123 -69 -30 96 -100
-115 127 -57 102 34 -6 72 38
45 -90 -28 33 12 95 51 -26
31 1 -42 25 -126 -120 -64 93
-98 -111 -96 -127 -35 -100 127 -127
-100 66 -127 127 81 -57 86 -59
-57 -96 -92 83 45 13 -8 4
66 20 -102 58 -45 -103 -127 87
00000000: f621 d62a e224 d544 523f 38c8 1ec2 0be0
00000010: 2ecd adfa 021c 91d3 013b eefc 711f f681
00000020: ef04 df09 b610 f126 0936 6bbf fca1 2cc7
00000030: 7fd3 dafb 29ed 9adc f6b1 251c 69e7 acbe
00000040: e82d a014 c856 df39 0509 779e e781 e60f
00000050: 2cb9 f00c 3163 ea4d fa94 7f18 7f0c c4c0
00000060: b723 81d6 8137 3d43 e360 74c7 e4ad 037f
00000070: e4dc 8104 4138 1b7f ebf1 1df7 09da a8ed
00000080: b5ef 9cbb 9a1f 3dcc cb53 fc13 e598 0377
00000090: 12bd 1d0d 3a7f 3214 0872 e2e0 b3d4 881e
000000a0: b0ba bdad c41b 69ae a577 fa47 25c7 2c63
000000b0: 0ed1 eafd f75e 1a4e fce0 fcdb 8490 b44c
000000c0: a9c6 b585 bbe2 609c 8d7f c766 22fa 4826
000000d0: 2da6 e421 0c5f 33e6 1f01 d619 8288 c05d
000000e0: 9e91 a081 dd9c 7f81 9c42 817f 51c7 56c5
000000f0: c7a0 a453 2d0d f804 4214 9a3a d399 8157

tfl.pseudo_qconst13 i1 [64, 1, 1, 64]
104 -19 -75 -83 48 47 -15 -16
45 -5 -96 47 56 -65 27 -20
85 -71 63 -6 -26 -1 68 60
29 63 72 -54 -21 -13 -36 58
-15 19 45 -99 46 -21 -95 50
18 -89 -61 16 53 18 33 -63
-20 68 -8 -33 -38 22 -4 -22
39 86 46 -127 -19 44 -25 43
-62 -35 7 -6 39 -8 51 0
2 52 -79 51 -21 6 4 -8
39 -77 -53 44 -16 -31 -14 -15
28 -76 -37 45 -25 19 47 -66
-1 -2 -82 21 -52 -51 -20 42
-37 -18 73 19 -127 -37 -15 21
105 37 -24 43 -45 108 -9 -43
-59 26 29 -49 -33 -76 13 29
37 -10 27 -15 -55 -68 2 5
-5 -33 -81 31 83 -72 -22 124
26 -116 75 -49 53 -70 -13 -89
24 3 -16 -21 7 55 -100 13
119 14 60 67 -48 -27 -32 -4
-64 -21 -38 -38 -6 -36 21 -8
31 71 61 -38 -20 -96 2 -41
-35 -7 37 -108 10 9 127 -2
33 30 4 -48 -40 -13 -4 -16
-33 -30 -70 -108 91 13 -31 82
55 -87 -57 -112 127 -51 35 -111
38 -15 -23 -73 62 78 -64 2
1 -10 32 -2 26 19 -35 10
-65 -3 -46 1 4 8 -29 -57
-15 51 59 101 -23 -24 -18 -48
51 -17 55 -108 -14 25 38 75
00000000: 68ed b5ad 302f f1f0 2dfb a02f 38bf 1bec
00000010: 55b9 3ffa e6ff 443c 1d3f 48ca ebf3 dc3a
00000020: f113 2d9d 2eeb a132 12a7 c310 3512 21c1
00000030: ec44 f8df da16 fcea 2756 2e81 ed2c e72b
00000040: c2dd 07fa 27f8 3300 0234 b133 eb06 04f8
00000050: 27b3 cb2c f0e1 f2f1 1cb4 db2d e713 2fbe
00000060: fffe ae15 cccd ec2a dbee 4913 81db f115
00000070: 6925 e82b d36c f7d5 c51a 1dcf dfb4 0d1d
00000080: 25f6 1bf1 c9bc 0205 fbdf af1f 53b8 ea7c
00000090: 1a8c 4bcf 35ba f3a7 1803 f0eb 0737 9c0d
000000a0: 770e 3c43 d0e5 e0fc c0eb dada fadc 15f8
000000b0: 1f47 3dda eca0 02d7 ddf9 2594 0a09 7ffe
000000c0: 211e 04d0 d8f3 fcf0 dfe2 ba94 5b0d e152
000000d0: 37a9 c790 7fcd 2391 26f1 e9b7 3e4e c002
000000e0: 01f6 20fe 1a13 dd0a bffd d201 0408 e3c7
000000f0: f133 3b65 e9e8 eed0 33ef 3794 f219 264b

tfl.pseudo_qconst15 i1 [1, 11, 1, 32]
88 -127 104 127 19 -54 -74 127
-59 -112 19 34 -52 -127 75 46
17 -80 6 27 15 -127 -32 -126
-72 -127 13 61 36 -10 -23 20
90 -61 67 80 30 -127 -40 68
-66 -100 -36 34 -25 -88 98 20
95 -69 87 23 50 -71 -26 -97
-39 -103 -1 44 87 12 -110 4
14 -68 47 -4 4 -84 -33 79
-17 -63 -61 -22 -67 -56 5 45
33 -15 74 47 -17 -80 -18 -5
-38 -83 -30 51 115 -10 -20 -15
-45 -37 43 -52 -1 8 20 87
-69 -68 -41 -26 -71 -41 127 62
70 -107 88 21 -55 -62 29 18
127 -89 -81 82 126 -2 42 -59
-127 -84 -7 18 -8 16 86 53
-127 -127 66 11 -97 -23 98 47
27 -102 127 -19 -38 -28 13 -25
94 -115 -127 -101 127 -12 97 -86
-127 -53 -65 59 -25 -27 127 88
-70 -46 99 -49 -127 11 101 37
17 -5 81 -93 15 18 -31 -43
32 -106 -122 -110 41 -11 124 -84
-96 -38 -127 95 -25 -33 99 35
-112 3 90 -95 -58 6 80 24
-18 77 48 80 127 70 -61 -7
-118 10 -1 -71 15 -37 49 73
-24 -31 -71 15 -35 20 60 21
-72 102 127 -58 40 13 57 56
-34 104 -51 123 103 87 -27 96
-124 47 116 7 -2 -31 38 127
00000000: 5881 687f 13ca b67f c590 1322 cc81 4b2e
00000010: 11b0 061b 0f81 e082 b881 0d3d 24f6 e914
00000020: 5ac3 4350 1e81 d844 be9c dc22 e7a8 6214
00000030: 5fbb 5717 32b9 e69f d999 ff2c 570c 9204
00000040: 0ebc 2ffc 04ac df4f efc1 c3ea bdc8 052d
00000050: 21f1 4a2f efb0 eefb daad e233 73f6 ecf1
00000060: d3db 2bcc ff08 1457 bbbc d7e6 b9d7 7f3e
00000070: 4695 5815 c9c2 1d12 7fa7 af52 7efe 2ac5
00000080: 81ac f912 f810 5635 8181 420b 9fe9 622f
00000090: 1b9a 7fed dae4 0de7 5e8d 819b 7ff4 61aa
000000a0: 81cb bf3b e7e5 7f58 bad2 63cf 810b 6525
000000b0: 11fb 51a3 0f12 e1d5 2096 8692 29f5 7cac
000000c0: a0da 815f e7df 6323 9003 5aa1 c606 5018
000000d0: ee4d 3050 7f46 c3f9 8a0a ffb9 0fdb 3149
000000e0: e8e1 b90f dd14 3c15 b866 7fc6 280d 3938
000000f0: de68 cd7b 6757 e560 842f 7407 fee1 267f

tfl.pseudo_qconst17 i1 [1, 7, 1, 32]
-29 127 11 69 21 110 -127 -126
-62 10 -6 22 18 100 3 36
-58 67 127 -20 -30 47 27 -8
127 35 45 -91 -127 -49 -11 -85
-46 103 60 95 -24 127 -12 -97
-65 -43 -4 32 27 75 -48 45
-22 73 104 -71 0 82 -2 -127
63 -5 97 -110 -66 -19 19 -81
-53 -34 8 115 -49 12 -22 105
2 -127 91 -16 48 9 -98 -9
77 127 99 19 85 -56 -20 3
104 -108 91 -49 -32 127 -36 -58
-75 -73 88 70 15 -82 21 127
2 -87 127 -73 10 6 -114 -57
44 94 -50 94 107 -21 -19 87
76 -78 0 -7 10 101 25 -32
-101 5 127 -46 17 -111 33 -47
62 -53 16 17 -38 -84 -54 -43
35 38 -76 -28 -41 -92 -19 82
91 -101 -127 9 18 56 1 -34
-85 13 65 -62 70 -71 -48 7
22 16 -35 127 -82 -127 15 -95
-30 -1 -10 -127 -127 -53 -42 -38
65 -127 -104 97 55 -62 110 -67
-127 23 55 -127 127 7 -127 -73
127 24 66 102 -127 -70 127 -127
-127 67 0 -58 -34 127 -127 30
26 -38 -59 127 -18 34 127 -127
00000000: e37f 0b45 156e 8182 c20a fa16 1264 0324
00000010: c643 7fec e22f 1bf8 7f23 2da5 81cf f5ab
00000020: d267 3c5f e87f f49f bfd5 fc20 1b4b d02d
00000030: ea49 68b9 0052 fe81 3ffb 6192 beed 13af
00000040: cbde 0873 cf0c ea69 0281 5bf0 3009 9ef7
00000050: 4d7f 6313 55c8 ec03 6894 5bcf e07f dcc6
00000060: b5b7 5846 0fae 157f 02a9 7fb7 0a06 8ec7
00000070: 2c5e ce5e 6beb ed57 4cb2 00f9 0a65 19e0
00000080: 9b05 7fd2 1191 21d1 3ecb 1011 daac cad5
00000090: 2326 b4e4 d7a4 ed52 5b9b 8109 1238 01de
000000a0: ab0d 41c2 46b9 d007 1610 dd7f ae81 0fa1
000000b0: e2ff f681 81cb d6da 4181 9861 37c2 6ebd
000000c0: 8117 3781 7f07 81b7 7f18 4266 81ba 7f81
000000d0: 8143 00c6 de7f 811e 1ada c57f ee22 7f81

tfl.pseudo_qconst19 i1 [64, 1, 1, 32]
-20 37 -94 -127 -29 -18 -24 -32
60 -34 24 61 48 -72 -26 44
73 -71 10 -55 -5 97 19 16
103 61 42 55 -124 40 79 -28
-17 -17 -45 35 -25 -44 22 127
14 62 29 -43 -42 25 -16 25
36 -14 -39 -23 -20 -98 -83 23
-102 64 24 -37 -7 -22 63 -30
-19 -127 48 42 29 -27 -31 -20
-40 -35 -6 6 5 51 -33 -20
-3 15 7 43 -112 -30 5 15
-16 -10 -98 65 -7 65 -35 -18
-6 -71 127 71 1 -93 53 -6
-11 5 -63 -55 28 -21 -48 55
52 28 -32 38 61 -50 -17 -79
-30 16 -92 67 -24 89 30 62
35 0 78 -43 -19 78 13 41
-14 35 -40 -37 16 36 107 -73
0 17 -127 88 -46 -8 15 -71
-68 -49 -55 57 -33 1 10 -18
22 23 -32 30 15 -26 -41 15
-38 -7 127 22 68 45 19 6
-34 -16 22 24 -28 -6 -9 -7
-10 -8 -26 8 11 55 -24 -49
37 -7 85 51 19 -68 18 22
79 7 127 35 106 90 43 43
-30 -54 -17 22 -92 -27 -67 11
-60 110 60 -29 10 60 2 -37
57 -77 3 44 13 -17 -21 39
38 67 -8 10 62 60 21 5
-17 47 127 -73 -87 13 23 35
17 25 -34 -121 2 47 -28 -32
00000000: ec25 a281 e3ee e8e0 3cde 183d 30b8 e62c
00000010: 49b9 0ac9 fb61 1310 673d 2a37 8428 4fe4
00000020: efef d323 e7d4 167f 0e3e 1dd5 d619 f019
00000030: 24f2 d9e9 ec9e ad17 9a40 18db f9ea 3fe2
00000040: ed81 302a 1de5 e1ec d8dd fa06 0533 dfec
00000050: fd0f 072b 90e2 050f f0f6 9e41 f941 ddee
00000060: fab9 7f47 01a3 35fa f505 c1c9 1ceb d037
00000070: 341c e026 3dce efb1 e210 a443 e859 1e3e
00000080: 2300 4ed5 ed4e 0d29 f223 d8db 1024 6bb7
00000090: 0011 8158 d2f8 0fb9 bccf c939 df01 0aee
000000a0: 1617 e01e 0fe6 d70f daf9 7f16 442d 1306
000000b0: def0 1618 e4fa f7f9 f6f8 e608 0b37 e8cf
000000c0: 25f9 5533 13bc 1216 4f07 7f23 6a5a 2b2b
000000d0: e2ca ef16 a4e5 bd0b c46e 3ce3 0a3c 02db
000000e0: 39b3 032c 0def eb27 2643 f80a 3e3c 1505
000000f0: ef2f 7fb7 a90d 1723 1119 de87 022f e4e0

tfl.pseudo_qconst21 i1 [1, 5, 1, 32]
109 91 23 25 -55 -96 90 56
-127 60 95 -1 65 -127 -34 -127
8 81 9 -127 -59 127 -112 -10
23 44 127 -58 45 -11 -2 -121
119 14 -127 104 -127 -110 48 127
-103 49 127 -87 73 -10 127 -103
-77 57 112 27 -62 97 -88 56
-32 -68 115 -65 21 9 39 -83
127 -37 -98 127 -38 -127 -18 82
-15 -22 58 -67 -53 122 23 -15
-127 -46 127 16 -82 -66 -78 -127
-53 -127 44 -93 98 93 -68 72
122 -125 -44 -60 115 -47 -107 100
-83 1 -36 -60 -127 91 -126 -9
-60 38 67 24 -115 -111 -127 38
-103 14 -8 -89 -65 127 -67 127
23 -127 26 -88 96 -83 -127 -22
-86 127 -26 127 -120 0 -99 69
-79 127 -59 -74 -127 -84 -102 44
-127 82 -22 -127 -127 122 -127 51
00000000: 6d5b 1719 c9a0 5a38 813c 5fff 4181 de81
00000010: 0851 0981 c57f 90f6 172c 7fc6 2df5 fe87
00000020: 770e 8168 8192 307f 9931 7fa9 49f6 7f99
00000030: b339 701b c261 a838 e0bc 73bf 1509 27ad
00000040: 7fdb 9e7f da81 ee52 f1ea 3abd cb7a 17f1
00000050: 81d2 7f10 aebe b281 cb81 2ca3 625d bc48
00000060: 7a83 d4c4 73d1 9564 ad01 dcc4 815b 82f7
00000070: c426 4318 8d91 8126 990e f8a7 bf7f bd7f
00000080: 1781 1aa8 60ad 81ea aa7f e67f 8800 9d45
00000090: b17f c5b6 81ac 9a2c 8152 ea81 817a 8133

tfl.pseudo_qconst23 i1 [32, 5, 1, 40]
3 -8 16 14 18 26 47 69
50 48 44 28 51 64 56 36
36 20 45 19 12 -10 -12 -66
-50 -63 -12 21 -10 -21 -16 -5
13 -24 -29 -25 -37 -32 -52 -33
-8 -55 -22 -8 37 37 66 29
47 37 26 14 37 47 25 23
14 10 5 -7 -9 -5 -2 -44
-22 -48 -15 3 -14 -9 5 29
39 -2 -4 -16 -13 -13 -44 -31
-10 -3 3 -6 25 14 30 -19
-21 -33 0 -16 6 4 8 -1
6 18 19 2 23 37 -7 -9
-20 -35 -31 -26 -17 10 -18 33
52 10 -9 5 12 3 -8 12
20 9 28 -24 -3 -36 -24 -72
-62 -70 -46 -48 -4 7 -12 -18
-7 -26 -11 -22 9 17 11 -2
13 -36 -18 -7 -43 -5 -6 62
52 18 -4 33 1 34 -26 26
12 59 33 -8 -20 -26 -86 -127
-111 -111 -54 -91 -46 -75 -32 -50
-25 -25 -9 -56 -12 57 18 15
13 -23 -29 -26 -54 8 -4 40
55 38 18 46 13 47 -1 26
54 56 87 8 28 25 58 35
37 45 33 48 69 101 53 33
59 22 14 -20 55 8 -1 -4
7 -21 -57 -18 -36 24 3 21
43 17 -6 6 62 29 52 80
83 63 90 15 23 11 48 39
15 47 33 31 56 62 75 68
00000000: 03f8 100e 121a 2f45 3230 2c1c 3340 3824
00000010: 2414 2d13 0cf6 f4be cec1 f415 f6eb f0fb
00000020: 0de8 e3e7 dbe0 ccdf f8c9 eaf8 2525 421d
00000030: 2f25 1a0e 252f 1917 0e0a 05f9 f7fb fed4
00000040: ead0 f103 f2f7 051d 27fe fcf0 f3f3 d4e1
00000050: f6fd 03fa 190e 1eed ebdf 00f0 0604 08ff
00000060: 0612 1302 1725 f9f7 ecdd e1e6 ef0a ee21
00000070: 340a f705 0c03 f80c 1409 1ce8 fddc e8b8
00000080: c2ba d2d0 fc07 f4ee f9e6 f5ea 0911 0bfe
00000090: 0ddc eef9 d5fb fa3e 3412 fc21 0122 e61a
000000a0: 0c3b 21f8 ece6 aa81 9191 caa5 d2b5 e0ce
000000b0: e7e7 f7c8 f439 120f 0de9 e3e6 ca08 fc28
000000c0: 3726 122e 0d2f ff1a 3638 5708 1c19 3a23
000000d0: 252d 2130 4565 3521 3b16 0eec 3708 fffc
000000e0: 07eb c7ee dc18 0315 2b11 fa06 3e1d 3450
000000f0: 533f 5a0f 170b 3027 0f2f 211f 383e 4b44

tfl.pseudo_qconst24 i1 [1, 14, 1, 64] scale=0.06258296 zero_point=-128
0.0 0.0 0.0 0.0 0.0 0.0 0.0 0.0
0.0 0.0 0.0 0.0 0.0 0.0 0.0 0.0
0.0 0.0 0.0 0.0 0.0 0.0 0.0 0.0
0.0 0.0 0.0 0.0 0.0 0.0 0.0 0.0
0.0 0.0 0.0 0.0 0.0 0.0 0.0 0.0
0.0 0.0 0.0 0.0 0.0 0.0 0.0 0.0
0.0 0.0 0.0 0.0 0.0 0.0 0.0 0.0
0.0 0.0 0.0 0.0 0.0 0.0 0.0 0.0
0.0 0.0 0.0 0.0 0.0 0.0 0.0 0.0
0.0 0.0 0.0 0.0 0.0 0.0 0.0 0.0
0.0 0.0 0.0 0.0 0.0 0.0 0.0 0.0
0.0 0.0 0.0 0.0 0.0 0.0 0.0 0.0
0.0 0.0 0.0 0.0 0.0 0.0 0.0 0.0
0.0 0.0 0.0 0.0 0.0 0.0 0.0 0.0
0.0 0.0 0.0 0.0 0.0 0.0 0.0 0.0
0.0 0.0 0.0 0.0 0.0 0.0 0.0 0.0
0.0 0.0 0.0 0.0 0.0 0.0 0.0 0.0
0.0 0.0 0.0 0.0 0.0 0.0 0.0 0.0
0.0 0.0 0.0 0.0 0.0 0.0 0.0 0.0
0.0 0.0 0.0 0.0 0.0 0.0 0.0 0.0
0.0 0.0 0.0 0.0 0.0 0.0 0.0 0.0
0.0 0.0 0.0 0.0 0.0 0.0 0.0 0.0
0.0 0.0 0.0 0.0 0.0 0.0 0.0 0.0
0.0 0.0 0.0 0.0 0.0 0.0 0.0 0.0
0.0 0.0 0.0 0.0 0.0 0.0 0.0 0.0
0.0 0.0 0.0 0.0 0.0 0.0 0.0 0.0
0.0 0.0 0.0 0.0 0.0 0.0 0.0 0.0
0.0 0.0 0.0 0.0 0.0 0.0 0.0 0.0
0.0 0.0 0.0 0.0 0.0 0.0 0.0 0.0
0.0 0.0 0.0 0.0 0.0 0.0 0.0 0.0
0.0 0.0 0.0 0.0 0.0 0.0 0.0 0.0
0.0 0.0 0.0 0.0 0.0 0.0 0.0 0.0
00000000: 8080 8080 8080 8080 8080 8080 8080 8080
00000010: 8080 8080 8080 8080 8080 8080 8080 8080
00000020: 8080 8080 8080 8080 8080 8080 8080 8080
00000030: 8080 8080 8080 8080 8080 8080 8080 8080
00000040: 8080 8080 8080 8080 8080 8080 8080 8080
00000050: 8080 8080 8080 8080 8080 8080 8080 8080
00000060: 8080 8080 8080 8080 8080 8080 8080 8080
00000070: 8080 8080 8080 8080 8080 8080 8080 8080
00000080: 8080 8080 8080 8080 8080 8080 8080 8080
00000090: 8080 8080 8080 8080 8080 8080 8080 8080
000000a0: 8080 8080 8080 8080 8080 8080 8080 8080
000000b0: 8080 8080 8080 8080 8080 8080 8080 8080
000000c0: 8080 8080 8080 8080 8080 8080 8080 8080
000000d0: 8080 8080 8080 8080 8080 8080 8080 8080
000000e0: 8080 8080 8080 8080 8080 8080 8080 8080
000000f0: 8080 8080 8080 8080 8080 8080 8080 8080

tfl.pseudo_qconst25 i1 [1, 10, 1, 64] scale=0.04495989 zero_point=-128
0.0 0.0 0.0 0.0 0.0 0.0 0.0 0.0
0.0 0.0 0.0 0.0 0.0 0.0 0.0 0.0
0.0 0.0 0.0 0.0 0.0 0.0 0.0 0.0
0.0 0.0 0.0 0.0 0.0 0.0 0.0 0.0
0.0 0.0 0.0 0.0 0.0 0.0 0.0 0.0
0.0 0.0 0.0 0.0 0.0 0.0 0.0 0.0
0.0 0.0 0.0 0.0 0.0 0.0 0.0 0.0
0.0 0.0 0.0 0.0 0.0 0.0 0.0 0.0
0.0 0.0 0.0 0.0 0.0 0.0 0.0 0.0
0.0 0.0 0.0 0.0 0.0 0.0 0.0 0.0
0.0 0.0 0.0 0.0 0.0 0.0 0.0 0.0
0.0 0.0 0.0 0.0 0.0 0.0 0.0 0.0
0.0 0.0 0.0 0.0 0.0 0.0 0.0 0.0
0.0 0.0 0.0 0.0 0.0 0.0 0.0 0.0
0.0 0.0 0.0 0.0 0.0 0.0 0.0 0.0
0.0 0.0 0.0 0.0 0.0 0.0 0.0 0.0
0.0 0.0 0.0 0.0 0.0 0.0 0.0 0.0
0.0 0.0 0.0 0.0 0.0 0.0 0.0 0.0
0.0 0.0 0.0 0.0 0.0 0.0 0.0 0.0
0.0 0.0 0.0 0.0 0.0 0.0 0.0 0.0
0.0 0.0 0.0 0.0 0.0 0.0 0.0 0.0
0.0 0.0 0.0 0.0 0.0 0.0 0.0 0.0
0.0 0.0 0.0 0.0 0.0 0.0 0.0 0.0
0.0 0.0 0.0 0.0 0.0 0.0 0.0 0.0
0.0 0.0 0.0 0.0 0.0 0.0 0.0 0.0
0.0 0.0 0.0 0.0 0.0 0.0 0.0 0.0
0.0 0.0 0.0 0.0 0.0 0.0 0.0 0.0
0.0 0.0 0.0 0.0 0.0 0.0 0.0 0.0
0.0 0.0 0.0 0.0 0.0 0.0 0.0 0.0
0.0 0.0 0.0 0.0 0.0 0.0 0.0 0.0
0.0 0.0 0.0 0.0 0.0 0.0 0.0 0.0
0.0 0.0 0.0 0.0 0.0 0.0 0.0 0.0
00000000: 8080 8080 8080 8080 8080 8080 8080 8080
00000010: 8080 8080 8080 8080 8080 8080 8080 8080
00000020: 8080 8080 8080 8080 8080 8080 8080 8080
00000030: 8080 8080 8080 8080 8080 8080 8080 8080
00000040: 8080 8080 8080 8080 8080 8080 8080 8080
00000050: 8080 8080 8080 8080 8080 8080 8080 8080
00000060: 8080 8080 8080 8080 8080 8080 8080 8080
00000070: 8080 8080 8080 8080 8080 8080 8080 8080
00000080: 8080 8080 8080 8080 8080 8080 8080 8080
00000090: 8080 8080 8080 8080 8080 8080 8080 8080
000000a0: 8080 8080 8080 8080 8080 8080 8080 8080
000000b0: 8080 8080 8080 8080 8080 8080 8080 8080
000000c0: 8080 8080 8080 8080 8080 8080 8080 8080
000000d0: 8080 8080 8080 8080 8080 8080 8080 8080
000000e0: 8080 8080 8080 8080 8080 8080 8080 8080
000000f0: 8080 8080 8080 8080 8080 8080 8080 8080

tfl.pseudo_qconst26 i1 [1, 4, 1, 32] scale=1.8589623 zero_point=-128
0.0 0.0 0.0 0.0 0.0 0.0 0.0 0.0
0.0 0.0 0.0 0.0 0.0 0.0 0.0 0.0
0.0 0.0 0.0 0.0 0.0 0.0 0.0 0.0
0.0 0.0 0.0 0.0 0.0 0.0 0.0 0.0
0.0 0.0 0.0 0.0 0.0 0.0 0.0 0.0
0.0 0.0 0.0 0.0 0.0 0.0 0.0 0.0
0.0 0.0 0.0 0.0 0.0 0.0 0.0 0.0
0.0 0.0 0.0 0.0 0.0 0.0 0.0 0.0
0.0 0.0 0.0 0.0 0.0 0.0 0.0 0.0
0.0 0.0 0.0 0.0 0.0 0.0 0.0 0.0
0.0 0.0 0.0 0.0 0.0 0.0 0.0 0.0
0.0 0.0 0.0 0.0 0.0 0.0 0.0 0.0
0.0 0.0 0.0 0.0 0.0 0.0 0.0 0.0
0.0 0.0 0.0 0.0 0.0 0.0 0.0 0.0
0.0 0.0 0.0 0.0 0.0 0.0 0.0 0.0
0.0 0.0 0.0 0.0 0.0 0.0 0.0 0.0
00000000: 8080 8080 8080 8080 8080 8080 8080 8080
00000010: 8080 8080 8080 8080 8080 8080 8080 8080
00000020: 8080 8080 8080 8080 8080 8080 8080 8080
00000030: 8080 8080 8080 8080 8080 8080 8080 8080
00000040: 8080 8080 8080 8080 8080 8080 8080 8080
00000050: 8080 8080 8080 8080 8080 8080 8080 8080
00000060: 8080 8080 8080 8080 8080 8080 8080 8080
00000070: 8080 8080 8080 8080 8080 8080 8080 8080

tfl.pseudo_qconst27 i1 [1, 3, 1, 40] scale=0.101960786 zero_point=-128
0.0 0.0 0.0 0.0 0.0 0.0 0.0 0.0
0.0 0.0 0.0 0.0 0.0 0.0 0.0 0.0
0.0 0.0 0.0 0.0 0.0 0.0 0.0 0.0
0.0 0.0 0.0 0.0 0.0 0.0 0.0 0.0
0.0 0.0 0.0 0.0 0.0 0.0 0.0 0.0
0.0 0.0 0.0 0.0 0.0 0.0 0.0 0.0
0.0 0.0 0.0 0.0 0.0 0.0 0.0 0.0
0.0 0.0 0.0 0.0 0.0 0.0 0.0 0.0
0.0 0.0 0.0 0.0 0.0 0.0 0.0 0.0
0.0 0.0 0.0 0.0 0.0 0.0 0.0 0.0
0.0 0.0 0.0 0.0 0.0 0.0 0.0 0.0
0.0 0.0 0.0 0.0 0.0 0.0 0.0 0.0
0.0 0.0 0.0 0.0 0.0 0.0 0.0 0.0
0.0 0.0 0.0 0.0 0.0 0.0 0.0 0.0
0.0 0.0 0.0 0.0 0.0 0.0 0.0 0.0
00000000: 8080 8080 8080 8080 8080 8080 8080 8080
00000010: 8080 8080 8080 8080 8080 8080 8080 8080
00000020: 8080 8080 8080 8080 8080 8080 8080 8080
00000030: 8080 8080 8080 8080 8080 8080 8080 8080
00000040: 8080 8080 8080 8080 8080 8080 8080 8080
00000050: 8080 8080 8080 8080 8080 8080 8080 8080
00000060: 8080 8080 8080 8080 8080 8080 8080 8080
00000070: 8080 8080 8080 8080

tfl.pseudo_qconst28 i1 [1, 36, 1, 64] scale=0.028567662 zero_point=-128
0.0 0.0 0.0 0.0 0.0 0.0 0.0 0.0
0.0 0.0 0.0 0.0 0.0 0.0 0.0 0.0
0.0 0.0 0.0 0.0 0.0 0.0 0.0 0.0
0.0 0.0 0.0 0.0 0.0 0.0 0.0 0.0
0.0 0.0 0.0 0.0 0.0 0.0 0.0 0.0
0.0 0.0 0.0 0.0 0.0 0.0 0.0 0.0
0.0 0.0 0.0 0.0 0.0 0.0 0.0 0.0
0.0 0.0 0.0 0.0 0.0 0.0 0.0 0.0
0.0 0.0 0.0 0.0 0.0 0.0 0.0 0.0
0.0 0.0 0.0 0.0 0.0 0.0 0.0 0.0
0.0 0.0 0.0 0.0 0.0 0.0 0.0 0.0
0.0 0.0 0.0 0.0 0.0 0.0 0.0 0.0
0.0 0.0 0.0 0.0 0.0 0.0 0.0 0.0
0.0 0.0 0.0 0.0 0.0 0.0 0.0 0.0
0.0 0.0 0.0 0.0 0.0 0.0 0.0 0.0
0.0 0.0 0.0 0.0 0.0 0.0 0.0 0.0
0.0 0.0 0.0 0.0 0.0 0.0 0.0 0.0
0.0 0.0 0.0 0.0 0.0 0.0 0.0 0.0
0.0 0.0 0.0 0.0 0.0 0.0 0.0 0.0
0.0 0.0 0.0 0.0 0.0 0.0 0.0 0.0
0.0 0.0 0.0 0.0 0.0 0.0 0.0 0.0
0.0 0.0 0.0 0.0 0.0 0.0 0.0 0.0
0.0 0.0 0.0 0.0 0.0 0.0 0.0 0.0
0.0 0.0 0.0 0.0 0.0 0.0 0.0 0.0
0.0 0.0 0.0 0.0 0.0 0.0 0.0 0.0
0.0 0.0 0.0 0.0 0.0 0.0 0.0 0.0
0.0 0.0 0.0 0.0 0.0 0.0 0.0 0.0
0.0 0.0 0.0 0.0 0.0 0.0 0.0 0.0
0.0 0.0 0.0 0.0 0.0 0.0 0.0 0.0
0.0 0.0 0.0 0.0 0.0 0.0 0.0 0.0
0.0 0.0 0.0 0.0 0.0 0.0 0.0 0.0
0.0 0.0 0.0 0.0 0.0 0.0 0.0 0.0
00000000: 8080 8080 8080 8080 8080 8080 8080 8080
00000010: 8080 8080 8080 8080 8080 8080 8080 8080
00000020: 8080 8080 8080 8080 8080 8080 8080 8080
00000030: 8080 8080 8080 8080 8080 8080 8080 8080
00000040: 8080 8080 8080 8080 8080 8080 8080 8080
00000050: 8080 8080 8080 8080 8080 8080 8080 8080
00000060: 8080 8080 8080 8080 8080 8080 8080 8080
00000070: 8080 8080 8080 8080 8080 8080 8080 8080
00000080: 8080 8080 8080 8080 8080 8080 8080 8080
00000090: 8080 8080 8080 8080 8080 8080 8080 8080
000000a0: 8080 8080 8080 8080 8080 8080 8080 8080
000000b0: 8080 8080 8080 8080 8080 8080 8080 8080
000000c0: 8080 8080 8080 8080 8080 8080 8080 8080
000000d0: 8080 8080 8080 8080 8080 8080 8080 8080
000000e0: 8080 8080 8080 8080 8080 8080 8080 8080
000000f0: 8080 8080 8080 8080 8080 8080 8080 8080

tfl.pseudo_qconst29 i1 [1, 22, 1, 64] scale=0.04974955 zero_point=-128
0.0 0.0 0.0 0.0 0.0 0.0 0.0 0.0
0.0 0.0 0.0 0.0 0.0 0.0 0.0 0.0
0.0 0.0 0.0 0.0 0.0 0.0 0.0 0.0
0.0 0.0 0.0 0.0 0.0 0.0 0.0 0.0
0.0 0.0 0.0 0.0 0.0 0.0 0.0 0.0
0.0 0.0 0.0 0.0 0.0 0.0 0.0 0.0
0.0 0.0 0.0 0.0 0.0 0.0 0.0 0.0
0.0 0.0 0.0 0.0 0.0 0.0 0.0 0.0
0.0 0.0 0.0 0.0 0.0 0.0 0.0 0.0
0.0 0.0 0.0 0.0 0.0 0.0 0.0 0.0
0.0 0.0 0.0 0.0 0.0 0.0 0.0 0.0
0.0 0.0 0.0 0.0 0.0 0.0 0.0 0.0
0.0 0.0 0.0 0.0 0.0 0.0 0.0 0.0
0.0 0.0 0.0 0.0 0.0 0.0 0.0 0.0
0.0 0.0 0.0 0.0 0.0 0.0 0.0 0.0
0.0 0.0 0.0 0.0 0.0 0.0 0.0 0.0
0.0 0.0 0.0 0.0 0.0 0.0 0.0 0.0
0.0 0.0 0.0 0.0 0.0 0.0 0.0 0.0
0.0 0.0 0.0 0.0 0.0 0.0 0.0 0.0
0.0 0.0 0.0 0.0 0.0 0.0 0.0 0.0
0.0 0.0 0.0 0.0 0.0 0.0 0.0 0.0
0.0 0.0 0.0 0.0 0.0 0.0 0.0 0.0
0.0 0.0 0.0 0.0 0.0 0.0 0.0 0.0
0.0 0.0 0.0 0.0 0.0 0.0 0.0 0.0
0.0 0.0 0.0 0.0 0.0 0.0 0.0 0.0
0.0 0.0 0.0 0.0 0.0 0.0 0.0 0.0
0.0 0.0 0.0 0.0 0.0 0.0 0.0 0.0
0.0 0.0 0.0 0.0 0.0 0.0 0.0 0.0
0.0 0.0 0.0 0.0 0.0 0.0 0.0 0.0
0.0 0.0 0.0 0.0 0.0 0.0 0.0 0.0
0.0 0.0 0.0 0.0 0.0 0.0 0.0 0.0
0.0 0.0 0.0 0.0 0.0 0.0 0.0 0.0
00000000: 8080 8080 8080 8080 8080 8080 8080 8080
00000010: 8080 8080 8080 8080 8080 8080 8080 8080
00000020: 8080 8080 8080 8080 8080 8080 8080 8080
00000030: 8080 8080 8080 8080 8080 8080 8080 8080
00000040: 8080 8080 8080 8080 8080 8080 8080 8080
00000050: 8080 8080 8080 8080 8080 8080 8080 8080
00000060: 8080 8080 8080 8080 8080 8080 8080 8080
00000070: 8080 8080 8080 8080 8080 8080 8080 8080
00000080: 8080 8080 8080 8080 8080 8080 8080 8080
00000090: 8080 8080 8080 8080 8080 8080 8080 8080
000000a0: 8080 8080 8080 8080 8080 8080 8080 8080
000000b0: 8080 8080 8080 8080 8080 8080 8080 8080
000000c0: 8080 8080 8080 8080 8080 8080 8080 8080
000000d0: 8080 8080 8080 8080 8080 8080 8080 8080
000000e0: 8080 8080 8080 8080 8080 8080 8080 8080
000000f0: 8080 8080 8080 8080 8080 8080 8080 8080
